checkpoint/custom_carla/val_best.pth (torch_old, 21722 bytes, 28 tensors)

st_gcns.0.gcn.conv.bias f4 [5]
00000000: 2d09 f1be bdf3 2ebd 8b66 1d3f 11e5 b1be
00000010: d655 b6bc
-0.47077313 -0.042712916 0.61484593 -0.34745076 -0.022257727

st_gcns.0.tcn.0.weight f4 [5]
00000000: 2b05 6e3f 403c 853f 8733 5c3f fcd2 643f
00000010: d5fb 8b3f
0.92976636 1.0409012 0.86016124 0.89384437 1.0936228

st_gcns.0.tcn.0.bias f4 [5]
00000000: 4093 a13e a632 8d3d 34c1 973e a90b 1f3e
00000010: 3ac9 af3e
0.31557655 0.06894426 0.2963959 0.15531792 0.3433321

st_gcns.0.tcn.0.running_mean f4 [5]
00000000: eaf0 19bc d382 efb9 81af 3a3c 8354 d6bb
00000010: 5d85 abb8
-0.009395817 -0.00045683104 0.011394382 -0.0065408363 -8.178756e-05

st_gcns.0.tcn.0.running_var f4 [5]
00000000: 2dfd 933b 2259 f139 29e3 c83b 56f2 333b
00000010: 9e95 3e3a
0.004516265 0.0004603351 0.006130595 0.0027457676 0.00072702195

st_gcns.0.tcn.2.weight f4 [5, 5, 3, 1]
00000000: 8aa7 123e 61fd d33b 6175 6c3b 592f 14be
00000010: 7429 613e a6de 693e f80c e3bc 1e93 4f3d
00000020: 7ba5 a13d a477 13be bde2 c8bc 79e0 023d
00000030: ad73 643e 828b 4a3e e801 8b3e 8e05 1fbc
00000040: 0a4c 05be 09eb 05bd 45d8 07be 21ec 06bd
00000050: 8cbd a2bd 07d7 5cbd 3a3a 81bd 1c32 e43b
00000060: 3541 f3bc a2c1 843d 1670 6e3d 0aaf 2b3d
00000070: 55f8 aabe 7e45 4cbe 9317 783e fa64 893d
00000080: f147 213d 8eb4 a33e 4067 1bbe 79f6 b33e
00000090: a040 3b3e c75b 25bd 7366 113c 6e91 b8bd
000000a0: 2395 5dbd 567d eabd f26c 113e b413 933e
000000b0: 245e 8cbc 9d10 113c c252 18be 2713 78be
000000c0: b7a6 14bc 23aa f53d f714 1b3d 8de1 2b3d
000000d0: d529 4fbd 94c7 acbe b533 593d a8b4 be3d
000000e0: 364f 73be 76a1 a13d 4dd5 dbbd 4409 7dbe
000000f0: 0662 6d3c 307f 3f3e 9a49 753d e2ab 893d
00000100: b6a8 65bc c5ad 61be ecb0 853d 3cf8 c03d
00000110: 1925 86bd 5fcf 233e 4e4c 8bbd 3d9e c4bd
00000120: 9d48 71be c1ed aebe 2aa3 4ebe
0.14321724 0.006469414 0.0036080705 -0.14471187 0.2198847 0.2283884 -0.027716145 0.05067741
0.07892891 -0.14401108 -0.02452218 0.031952355 0.22309752 0.1977978 0.27149892 -0.009705914
-0.13017288 -0.03269485 -0.13266094 -0.032940034 -0.079463094 -0.053916004 -0.06309934 0.0069639813
-0.02969418 0.06482245 0.058212362 0.041914977 -0.33392587 -0.19948384 0.24227743 0.06708713
0.03937525 0.3197369 -0.15176105 0.3514898 0.18286371 -0.04037073 0.008874523 -0.090121135
-0.054097306 -0.11449687 0.14201716 0.2872597 -0.017134733 0.008854059 -0.1487532 -0.24226056
-0.009072951 0.11995342 0.03786179 0.04196315 -0.050577004 -0.33746016 0.053027827 0.09311801
-0.23760685 0.07892124 -0.10734043 -0.24710566 0.014488703 0.18700862 0.059884645 0.06722237
-0.014017275 -0.22038944 0.06527886 0.09422347 -0.065500446 0.15997075 -0.06801663 -0.09600494
-0.23562856 -0.34165767 -0.2017943

st_gcns.0.tcn.2.bias f4 [5]
00000000: 7d6f 8ebd ca88 98bd 9ae8 d2bc 442f 1dbe
00000010: 565c 5ebe
-0.069548585 -0.074479654 -0.025745679 -0.15350062 -0.21714911

st_gcns.0.tcn.3.weight f4 [5]
00000000: 91cd 513f 0d42 663f cfc3 2c3f b32b 413f
00000010: 277c 293f
0.81954294 0.89944535 0.6748628 0.75457305 0.66205066

st_gcns.0.tcn.3.bias f4 [5]
00000000: 0a12 69be fc7c 133d acfb 55be ea85 64ba
00000010: 5378 8bbe
-0.22760788 0.036007866 -0.20896786 -0.00087174645 -0.27240238

st_gcns.0.tcn.3.running_mean f4 [5]
00000000: 5357 dc3e 4f8d fabe 0855 e53e e075 16bf
00000010: 00fd febe
0.43035373 -0.48935935 0.44791436 -0.5877361 -0.498024

st_gcns.0.tcn.3.running_var f4 [5]
00000000: 470b 0c3f 563c 913e 82cf cf3e bcf7 5c3d
00000010: 1b55 143f
0.5470471 0.28366345 0.40588003 0.053947195 0.5794236

st_gcns.0.residual.0.bias f4 [5]
00000000: 4e15 e7be 6cb5 c23e df82 553d fc30 083f
00000010: c2a3 1cbf
-0.45133442 0.3802904 0.05212676 0.53199744 -0.61187375

st_gcns.0.residual.1.weight f4 [5]
00000000: 9c52 6a3f 0767 743f d593 403f 9140 323f
00000010: f1f1 223f
0.915323 0.9546971 0.75225574 0.6962977 0.63650423

st_gcns.0.residual.1.bias f4 [5]
00000000: 0a12 69be fc7c 133d acfb 55be ea85 64ba
00000010: 5378 8bbe
-0.22760788 0.036007866 -0.20896786 -0.00087174645 -0.27240238

st_gcns.0.residual.1.running_mean f4 [5]
00000000: b5f6 e6be b150 c23e 32ca 553d 9b36 083f
00000010: e1ab 1cbf
-0.45110098 0.37952188 0.05219478 0.5320832 -0.61199766

st_gcns.0.residual.1.running_var f4 [5]
00000000: af3b 0839 b7f2 2a3a f1a7 6e3a 1379 a43a
00000010: cf12 fc3a
0.00012992205 0.00065211527 0.0009104005 0.001254829 0.001923168

tpcnns.0.weight f4 [8, 8, 3, 3]
00000000: f1a3 e3bd 04dd c6bd 73f6 813d 32a0 d7bc
00000010: c2c5 5b3c c416 5e3c aa29 14bd 961e 93bd
00000020: 202e 153c 7f06 adbd 387e 9bbd d8aa eabc
00000030: a610 4bbb 969f e0bd 356a 4a3b e369 4b3b
00000040: c17a a0bc 58ab 0abe c6ed 843d 9a0e 18bd
00000050: 8317 c33d eaea acbd 6739 1dbd efed 92bc
00000060: e05f 11bd 66ae a53d 51a8 bbbc b726 aa3c
00000070: 99ec 74bc df29 643d 4deb 01bd 1dbd 2a3c
00000080: d5b1 e93c 8fe7 57bd 5ec9 893d 1cd6 d8bd
00000090: cfc1 113c bf9c b9bc d14a cb3b 2402 3cbd
000000a0: 31a0 7ebd 51dd b83c c666 2abd e14d 813c
000000b0: 8309 2bbd ea64 7fbd ef58 90bd 36ff 183d
000000c0: 4525 85bc ca7e 483d 402c 56bd 3717 123d
000000d0: 73ba a5bd 2efd 713c 913a 02bc 84a8 c73b
000000e0: d6e5 7fbd c45d 3bbd 125e 9fbd 9055 a33c
000000f0: 1e37 fc3d 28b2 c63c 514a dbbd c54e d1bd
00000100: fbd6 02be 9bc6 703c 8efa 793d 04b6 3d3b
00000110: 9b37 933c 03c9 0cbd 9d3f f3bd aebd 87bd
00000120: 53d0 613d a89a c8bd 7412 b1bc 743d 723c
00000130: b9f4 18bd da02 4ebb 5b90 f1bc 36d9 893c
00000140: fb5a acbc 1bfe c73c 3000 67be 54a5 cbbd
00000150: d633 863d 21f2 53bc 0641 db3d 84b6 e53c
00000160: fb53 d83d 03cf 34bd a054 7bba ddd2 f73c
00000170: 539b a43c 2f7d 233d d86e c93c 8be5 52bd
00000180: 80f3 6abd 0ea3 28bd 3b62 173d d543 13bd
00000190: 3f62 a0bd e01a 8abd e4e4 543d a74a bc3d
000001a0: 20ce 463d 001a 193d e019 fd3d 593e 4c3d
000001b0: 88da 65bb 7d4b 3e3d 0849 1d3c a3cb 87bd
000001c0: b650 adbb 6656 f7bc a41e 463d 0e7d 2fbd
000001d0: fe5c f7ba abaa ee3b c4b0 493b 5945 093b
000001e0: b49d d0bb cdcb 2b3b f4cc 18bb 1ac1 54bc
000001f0: 5f94 3e3c e524 a93c 6537 19bd 6a53 a3bd
00000200: df96 cabd ec1c 8bbd 59b9 31bd 5a3e adbd
00000210: 229f 3fbd b902 0abe 5264 74bd 92ef b43d
00000220: cdb2 f63d 5cda da3d 224e 223d b2fd 153d
00000230: 848e e2bc 1241 1f3d e018 b23c 1f80 953d
00000240: 1b31 183d f846 593d ee1b 473c c772 86bc
00000250: 1c54 a3bd d0d1 b03b 5923 323d 844c 88bc
00000260: 27a2 ce3c 2dba 0fbd f6d5 70bd d0b5 33bd
00000270: 26a5 90bc 4376 d4bd 1d69 36bc e19f a1bd
00000280: 1dab 04be f9eb b63b fede 1f3d df1f 883d
00000290: 2708 eb3c 4418 ee3b 6cbe db3d 7901 3dbd
000002a0: 7449 fa3c d571 9b3d 820a 883d c71f 70bb
000002b0: 3686 303d 1b4e 2cbc 4e9d 4d3c cdc1 54bc
000002c0: c676 38bc 91bc 8b3c b95c e4bc 554b b13d
000002d0: 9cb0 8e3a 3bd1 843d 9b7f 4bbc c737 343d
000002e0: 5e28 413c f08f 5fbc baf1 16bd e3fe 3b3d
000002f0: 5e14 a8bc b94a 51bc a9ea f9bc b907 72ba
00000300: f7d7 02bc 1156 cbbc 4359 5abb c4ca 573c
00000310: 8947 b9bc a2fc 02ba 301f 733d f211 6bbd
00000320: b677 b93b d2da a2bd 5e62 943d 9a12 ddbc
00000330: 6a4a a23d 9fd6 7d3d adbc 96bd 9718 8ebc
00000340: 598a debd a8b7 7b3d e7dd 053d f60c 01be
00000350: 8711 00bd 4c56 3fbd 09dc 0fbe 0e14 313c
00000360: ef38 933d 1411 313d dba2 3c3d ab5f 2dbb
00000370: 5dcd 2bbd e290 cf3d d051 2bbc de5d 8b3b
00000380: 5178 52bd 75f2 99bd 3ca8 853d aca2 d03d
00000390: 70aa c23b 70a4 0bbd 2193 c1bd f0ee 98bd
000003a0: b661 3dbd 68ee ba3c eda9 ee3d a9f5 e73c
000003b0: 4236 8ebc 3e16 7cbd 0f52 aebd e4eb 3dbc
000003c0: 69a6 a2bd ef37 2d3d a3c6 c0bb e8c7 95bd
000003d0: 05a7 b9bc 5779 83bd 21e3 8b3d 5fc2 353d
000003e0: 3ad8 da3c b400 10be 1c86 ad3c 2e4b 19be
000003f0: 362f 93bd c2b2 aabc 493d a2bd bdfa 65bc
-0.11115254 -0.09710124 0.063458346 -0.026321504 0.013413848 0.013555232 -0.036172546 -0.07183568
0.009105235 -0.08448505 -0.07592434 -0.028645918 -0.0030985265 -0.109679386 0.0030886058 0.0031038455
-0.019589784 -0.13541925 0.06490664 -0.0371233 0.09525969 -0.08443244 -0.03838482 -0.017935721
-0.035491824 0.080899045 -0.022907408 0.020770414 -0.014948987 0.055703994 -0.03171854 0.010421065
0.02852718 -0.052711066 0.06727861 -0.10587713 0.008896305 -0.02265775 0.006203987 -0.04590048
-0.06216449 0.02256647 -0.04160192 0.015784206 -0.041757118 -0.0623521 -0.07048213 0.037352763
-0.016253123 0.04894904 -0.052288294 0.03566667 -0.08092203 0.014769835 -0.007948534 0.0060930867
-0.062475048 -0.04574372 -0.07781614 0.01993826 0.123152 0.024254873 -0.10707534 -0.10220102
-0.12777321 0.014695789 0.061029963 0.00289476 0.01797085 -0.034371387 -0.11877368 -0.066279754
0.055130314 -0.09795123 -0.021615244 0.014785159 -0.03734276 -0.0031434805 -0.02948778 0.016827207
-0.021039477 0.02441316 -0.22558665 -0.09943643 0.06552856 -0.012936146 0.107057616 0.028041132
0.10562893 -0.044142734 -0.00095875 0.030251915 0.020093596 0.039914306 0.024588987 -0.05148844
-0.057361126 -0.041171126 0.036958914 -0.03595336 -0.07831239 -0.06743407 0.0519761 0.09193926
0.04853642 0.03737831 0.12358451 0.049864147 -0.0035072882 0.04645871 0.009599932 -0.066306375
-0.0052891625 -0.030192565 0.048369065 -0.04284387 -0.0018872318 0.007283529 0.0030775527 0.0020945875
-0.006366456 0.0026214004 -0.002331552 -0.012985492 0.011632054 0.020647475 -0.037406344 -0.07974894
-0.098920576 -0.06792626 -0.043389652 -0.08459158 -0.04678262 -0.13477601 -0.059665985 0.08834757
0.12045822 0.1068618 0.039625295 0.036618896 -0.027655847 0.038880415 0.021740377 0.07299828
0.037156206 0.053046197 0.012152655 -0.016412152 -0.07975027 0.0053961053 0.04349074 -0.016638048
0.025223805 -0.03508966 -0.0587978 -0.04387456 -0.017656874 -0.10374119 -0.011133459 -0.078918226
-0.129559 0.0055823294 0.03903102 0.06646704 0.02869041 0.0072660763 0.107296795 -0.046143983
0.030552603 0.07590071 0.06642629 -0.0036640035 0.043096744 -0.010516669 0.012549711 -0.012985659
-0.011258787 0.017057689 -0.027876245 0.086569466 0.0010886374 0.0648522 -0.01242056 0.043998506
0.011789409 -0.013645157 -0.036851622 0.045897376 -0.020517524 -0.012774163 -0.030507402 -0.0009232718
-0.00798606 -0.024821313 -0.0033317364 0.013170902 -0.022617118 -0.00049967517 0.059355915 -0.05739016
0.0056600226 -0.07951893 0.072453246 -0.026986409 0.079243496 0.061972257 -0.07360206 -0.01734571
-0.108662315 0.061454445 0.032682326 -0.126026 -0.031266715 -0.04671316 -0.1404878 0.010808004
0.071885936 0.043229178 0.04605375 -0.0026454728 -0.041943897 0.10135056 -0.010456517 0.004253133
-0.051384274 -0.07516948 0.06526229 0.10187277 0.005940728 -0.034092367 -0.09451891 -0.07467449
-0.046235763 0.02281876 0.116535045 0.028315382 -0.017359857 -0.06154465 -0.08511745 -0.011591885
-0.079418965 0.04228967 -0.0058830543 -0.0731352 -0.022662649 -0.06419628 0.06830431 0.04437482
0.026714433 -0.14062768 0.021182112 -0.14970085 -0.07186739 -0.020837191 -0.079218455 -0.014036831

tpcnns.0.bias f4 [8]
00000000: adb8 e9be 7db0 853e 2262 0d3e dbb9 f9be
00000010: 117d 2d3e 197e 34bb 2f64 073e 2b3b fa3c
-0.4564871 0.26111212 0.13806966 -0.4877461 0.1694224 -0.002754098 0.13221811 0.030545792

tpcnns.1.weight f4 [8, 8, 3, 3]
00000000: ee33 51bd eb35 14be 9efe 37be d1f0 fdbd
00000010: 536c 31be 6b6d c3bd ba05 4ebe bdbe 35be
00000020: c4d5 b5bd a665 c5bc 08e4 e73b f6b6 02be
00000030: bfb2 2b3c 2b02 303d 39bf edbd 8a52 84bd
00000040: 7244 b13b f4db 6cbc 8f26 5ebc 9876 c1bd
00000050: d130 863d b6b0 7c3d 0773 fa3d d5ff 8bbd
00000060: 1abc 89bd 24f4 c0bc f6f7 d4bd 1f1d 07be
00000070: 24b3 13be 6220 07be a3be 08be 2a20 a53d
00000080: 5f84 a23d 89ca 0bbd 50bd ddbd 9b28 983c
00000090: 8ed8 6b3d 41c5 133d 7e6d a3bd 8c5c 1cbe
000000a0: f619 f93d dfda 673d 53c1 09bd b3c6 d6bc
000000b0: 1ec3 babc 853c 19be a329 15bd 8e8e 70bc
000000c0: 094a 35bd c00e 7e3b c806 a0bd ae17 393d
000000d0: b011 4ebd 5da1 4c3d 2a35 6e3d 8582 17be
000000e0: a5fc a3bd 7fa5 d83c e564 0bbe c6c9 30bd
000000f0: 2c36 9a3c ed9c ffbd 9e86 c93d 5504 cdbd
00000100: 7629 3bbc 153d 023e 0a81 863d b86a 6ebd
00000110: b422 babd b84a f8bc a9b4 983d b2ce d3bd
00000120: d2ee 5e3d eca7 bfbd 7c4c 603c faeb 203d
00000130: a0ed e6bd 0cf5 f1bd 1713 afbd bb73 e239
00000140: 4867 10be a0c7 443d 0f11 a4bd cb24 fbbc
00000150: 5949 39bd 28d1 b4bd b0a9 033d f3a5 3ebd
00000160: df69 5fbd cc2e c7bd 5632 22bb 9ce1 afbc
00000170: a27d a63c 9a41 70bd 3fcc d3bd 3384 79bd
00000180: 0ecf 0c3d f673 efb8 cfd2 9c3d a400 60bd
00000190: 52a9 3bbd f03c c33d ab53 80bd 3272 d9bd
000001a0: f549 a73d b49c e0bc 8132 003b 8a8d ec3c
000001b0: b292 d8bd faa1 833d 4478 03bd 1e37 c6bd
000001c0: 3c47 3f3d 6ef5 adba a5c1 ebbc 12ba a7bc
000001d0: 4c61 aabd dc62 4abd f117 a13d 4d23 683b
000001e0: 1c4b 2d3d 434c 7abd ca1e e5bd 4613 c0bc
000001f0: d076 f1bd d21c e4bd 7c0e 6e3c 1088 a8bd
00000200: 1e30 e4bd 0040 85bd 709c b4b9 668d 1ebd
00000210: 13a1 983d 40ae 0fbd 7931 cbbd faf6 263d
00000220: 3849 be3d 8ae6 3c3c 379c 363d 0902 1abd
00000230: ad21 50bd 3844 653d 27c7 ba3d f5fb 8ebd
00000240: 78f0 02be 09f2 69bc 1b08 1a3b e2bb 1e3c
00000250: 0138 ecbd c680 1f3d dc14 97bc 19fc f7bd
00000260: 1562 763d 3380 b63d 859c a1bc 5d70 81bd
00000270: 0e5d e03b 65f8 bebb b8fb 2d3c 4a15 253d
00000280: 1d50 0a3d e998 ccbd ee13 4cbd 9b14 2fbd
00000290: d579 9dbd a696 01be 36f6 12bb ea48 763d
000002a0: 17fd adbd 443d 93bd 9c5e b1bd 408d a6bd
000002b0: 4b24 a4bc 9578 a5bc 675f a1bc dfbe 08be
000002c0: 2aa1 5cbd f024 48bc d996 dbbd 3675 1c3d
000002d0: 590f dcbd 0787 c4bd 4180 133c 48e9 e2bd
000002e0: 4a4b 7e3c 2198 f0bd cb8d fa3c 378a 9fbd
000002f0: 6841 9a3b 903c c0bd a28f 10be 30b6 bc3d
00000300: 2669 02be a2f2 49bc 8ada 9d3d 978b 9fbd
00000310: 643f 19be c82d 09bd d51f 8e3c 9ce0 a63d
00000320: 483a cdbd 8c71 2a3c a5f1 583d 5503 643d
00000330: 65f9 8abd 6ddb 883b c09b 89bd dc6e 7bbd
00000340: 3907 22bd 30bf bf3d 64ff e8bd c087 67bc
00000350: a537 4f3d f502 ab3d 2b07 ca3d 758e a93c
00000360: 73c3 9ebc 8bf3 2f3d e916 3ebd 3734 bc3d
00000370: 2047 433d efc7 0e3b 4938 de3c 7d50 843d
00000380: 05b3 9fbd 0997 dabc b1ea 69bd 0d4b 5d3d
00000390: e353 3e3d 9b86 943d a75e 9ebd 1d0f 00be
000003a0: 37f4 91bd 4906 3bbd a9a2 38bd 8618 57bb
000003b0: b2cc f83c 4a15 c0bd e0e4 b53d 8b70 9bbd
000003c0: bd56 a53c 6fbb c03c 01ca ee3d 2446 4bbd
000003d0: db07 173d a075 d33c 3fca efbd 176f 4dbc
000003e0: 530d e13d 6864 f4bd 4d39 7fbd c722 bcbd
000003f0: 9765 4e3d be1f debc ab12 613d 9515 32be
-0.051074915 -0.14473693 -0.17968222 -0.12399448 -0.17326479 -0.09542354 -0.20119372 -0.17748542
-0.08878663 -0.024096321 0.007076744 -0.12765107 0.010479628 0.042970818 -0.116087385 -0.064610556
0.0054097706 -0.014456738 -0.013558998 -0.09446448 0.0655228 0.061691962 0.12228971 -0.068359055
-0.06725331 -0.023553915 -0.10398857 -0.13194703 -0.14423805 -0.13195947 -0.13353972 0.080627754
0.07935404 -0.0341287 -0.10827124 0.01857405 0.05757957 0.036076788 -0.07979868 -0.15269679
0.12163155 0.056605216 -0.033631634 -0.026217794 -0.022798117 -0.14964493 -0.03641666 -0.014682425
-0.04426006 0.0038766116 -0.078137934 0.0451886 -0.050309837 0.049958576 0.05815617 -0.14795883
-0.080071725 0.026446102 -0.13612707 -0.043161176 0.01882466 -0.12481103 0.09840129 -0.10010592
-0.011423459 0.12718613 0.06567581 -0.058207244 -0.0908865 -0.030309066 0.07456333 -0.103421584
0.054426976 -0.093582004 0.01369011 0.039287545 -0.11275792 -0.11814317 -0.08548563 0.00043192305
-0.14101899 0.04804194 -0.08011066 -0.030657193 -0.045235965 -0.08828956 0.03214425 -0.04654498
-0.054544326 -0.09725723 -0.002474924 -0.021469884 0.020323578 -0.058656313 -0.10341691 -0.06091709
0.03437715 -0.000114180075 0.07657396 -0.05468811 -0.045815773 0.09533107 -0.062659584 -0.10617484
0.08168403 -0.027418472 0.0019561353 0.028876085 -0.10574855 0.06427379 -0.032097116 -0.096784815
0.046698794 -0.0013271996 -0.02877886 -0.020474467 -0.08319339 -0.049410686 0.078658946 0.0035421432
0.042307958 -0.061107885 -0.11187513 -0.02344669 -0.1179024 -0.111383095 0.0145298205 -0.08229077
-0.1114199 -0.06506348 -0.0003444883 -0.038709067 0.074525975 -0.035078287 -0.099215455 0.04076288
0.09291309 0.011529574 0.04458257 -0.037599597 -0.050813366 0.05597326 0.091200165 -0.06981651
-0.12787044 -0.014278897 0.0023503366 0.009688349 -0.115341194 0.038941167 -0.018442564 -0.12108631
0.060152132 0.08911171 -0.019727955 -0.0632026 0.0068470305 -0.005827951 0.010619096 0.040303506
0.03376781 -0.09990103 -0.049823694 -0.04274426 -0.07689253 -0.12655124 -0.0022424585 0.06012813
-0.08495539 -0.0718942 -0.086606234 -0.0813241 -0.020036837 -0.0201991 -0.019698812 -0.13354062
-0.053864636 -0.012215838 -0.10722131 0.03819772 -0.10745115 -0.09596067 0.009002746 -0.11079651
0.01552088 -0.11747766 0.03058519 -0.07790034 0.004707504 -0.093865514 -0.14117292 0.09214437
-0.12735423 -0.012325915 0.07707699 -0.077902965 -0.14965588 -0.033490926 0.017349163 0.081483096
-0.10020882 0.010403048 0.052964825 0.05566724 -0.067858495 0.004176548 -0.0671916 -0.06138502
-0.03955767 0.09362638 -0.11376837 -0.014131486 0.050590176 0.083501734 0.098646484 0.020697812
-0.019380307 0.04295687 -0.046408568 0.09189647 0.047675252 0.002178665 0.027126448 0.064606644
-0.07797817 -0.026683347 -0.057108585 0.054026652 0.04646672 0.072522365 -0.07732897 -0.12505765
-0.071266584 -0.04566029 -0.045077 -0.0032821014 0.030371044 -0.093790606 0.08881545 -0.07589825
0.020182962 0.023526875 0.11659623 -0.04962744 0.036872726 0.025812924 -0.11708497 -0.012538693
0.109888695 -0.119332135 -0.062310506 -0.09186321 0.050389852 -0.027114745 0.054949444 -0.17391045

tpcnns.1.bias f4 [8]
00000000: 9c08 213e 75d1 23be 43a9 43be 3b3c 9bbd
00000010: 0bd3 58be 67fa c2bd ff4f 153c dedf 34be
0.1572594 -0.1599787 -0.19107537 -0.075798474 -0.21174257 -0.09520417 0.009113311 -0.17663524

tpcnns.2.weight f4 [8, 8, 3, 3]
00000000: adf9 cdbd 8f3e 99bd dfc4 913c e53d 06bd
00000010: 07a6 33bd ba25 a2ba 1584 793c 7d12 abbc
00000020: 6a50 8bbb a8fd 89bd 315f 8a3d 4405 4cbc
00000030: 4823 1f3d 3e22 8b3c 0335 b3bc bcf7 d23d
00000040: f6e7 ebbd 49a9 8abc 3b37 bb3c cec1 febd
00000050: d23a 573d ad41 cebd 2c4c 883c 4160 a8bd
00000060: 2e0d 55bd dd72 acbc 5e9b bd3c d9ed c03d
00000070: 76c2 b03d 0c90 7e3d 6255 69bd 47a4 73bd
00000080: 4208 cfbc 0dea babd b29c eebd 4af2 acbb
00000090: ba88 c0bc 4c07 a7bc ba99 cd3c 07d5 80bd
000000a0: ff19 973c d206 2fbd 32aa e2bd 53ff d0bc
000000b0: 9629 e7bc 4b4d 143c 760b b5bd 5155 91bc
000000c0: 4cf6 df3d bfd8 4bbb ba90 97bd f2c4 19bd
000000d0: 640e 013c 0999 bdbd 9cdb e0bc 62ee 73bd
000000e0: 5378 953c 4456 d2bd d00d 2f3d d050 893d
000000f0: df75 e2bd 840b 703c e0c1 84bd 8972 963c
00000100: c3b7 bf3d 5e44 9ebd f916 4ebd 3303 ca3d
00000110: f480 e33d a4f4 0d3e 1adb 91bd 6b57 fcbc
00000120: 792e 3ebd 860d 60bd ff8c d8bd 4470 1abe
00000130: 7ce6 08be 3537 9a3c fafe 3abe 9195 b5bc
00000140: c3c1 e43c e539 473d db6e 0fbd fb40 f1bd
00000150: 8cc5 223d 3530 6bbe ebed f0bd d2bb a5bd
00000160: fd99 36bc 3370 13be f298 193c 9c23 04bd
00000170: 7d0d 55bd da1e fbbd 5e89 97bc ae2b f2bd
00000180: 878f 49bc e9a5 583d 219f 16bd e98a ef3c
00000190: 468f 953d 32b6 debd 0344 80bc 89c4 80bb
000001a0: 4617 cbbd e6cb 36bd b964 99bd 46ae 9dbd
000001b0: 2fc4 a53c f98d 073d 34cf 59bd 7712 ebbd
000001c0: b7c7 cbbc f077 1bbe 976b 5bbd fde1 5fbd
000001d0: 7a31 9dbc 6923 853d 939d a0ba d887 17bd
000001e0: 30ad f43c 6389 233d c6a1 d43d 873f be3d
000001f0: 4157 723d f836 5e3b a746 85bc fbc7 efbc
00000200: 2166 ad3d d925 963d fc29 0bbe 9869 33bd
00000210: b5d0 b1bd 99b6 273c 2669 febd aa6d 03be
00000220: 7b5b b7bc c483 803d 8066 a5bd 37fc 4c3d
00000230: b176 04be 868a f43d d0b0 46bc f18a b2bd
00000240: da3e 833b 4fe8 8dbd 3906 703d 8102 8c3d
00000250: ccc8 f7bc 1cd1 b13d 7388 66bd 483e 933c
00000260: ff6a 523d 7467 e5bd d525 513d 6a6c babd
00000270: a3dd b0bd 8adb db3c de00 963b 5307 2ebe
00000280: b738 73bc 88c5 f93c b634 37bd 58e9 e73c
00000290: 92e4 0abe df42 b9bb 1b9d 51be 3190 4cbd
000002a0: 716a 20be f491 92bc edd1 d9bd 5fce 9d3d
000002b0: cbb8 323d e48c ec3c 0151 c8bd 45aa 8abd
000002c0: 17de eabc 9050 8abc 774f ffbd e563 d9bd
000002d0: 6c19 7e3c 4269 d5bd da19 d13b 4c5c f8bd
000002e0: c879 83bc 806e 3abc 7d28 33bd 2604 1ebe
000002f0: 07c9 ffbd 9938 3ebd ab1f 393d 7b3b 913d
00000300: 6772 3cbc 71af 13be e88c dfbd 3546 80bd
00000310: 6114 4fbd c687 07be cb2a 9b3d 8256 6d3c
00000320: e04b efbd a118 bcbd d610 b8bd abf5 ffbd
00000330: a31d 07be 6ce4 323c fcee 163d 0ce8 b1bd
00000340: b638 0a3d e1fa 61bc f3ad 16bc 735c 31bd
00000350: 1aa0 d6bc 4ed0 cfbc 6866 efbd 8d4f 623d
00000360: 9525 e53d ea14 3cbd f374 a73d 3373 513c
00000370: ab47 1b3d 49bb acbd c2c5 15bd 6278 42bd
00000380: f1c9 bf3d 0d4b bdbc ce2d 503d 5a45 b63d
00000390: 0df4 543c 48c7 bbbd c6d2 0dbd 1ef6 d4bd
000003a0: 9c64 493c 2933 e5bd 12b7 793d d57a 2f3e
000003b0: 2bef b6bb f38f cebd 9732 0e3c f24c 03be
000003c0: aa1b fdba 0275 cfbd 53c7 71bd 60e3 ae3c
000003d0: 5864 9abd 89c2 eebd 9c8f a4bd f3f8 d63b
000003e0: 9848 83bd 5768 9a3d 3639 49bd 652b a0bc
000003f0: 2805 e9bd 9467 61bd 70f7 ae3d 71ba b03d
-0.100573875 -0.07482635 0.01779407 -0.03277387 -0.043859508 -0.0012370863 0.015229245 -0.02088284
-0.0042515295 -0.06737834 0.067564376 -0.012452427 0.038852006 0.016984101 -0.021875864 0.10301158
-0.115188524 -0.016926425 0.022853484 -0.12439309 0.05254633 -0.100711204 0.016637884 -0.08221484
-0.052014522 -0.021050865 0.023145374 0.09420366 0.086308405 0.062149093 -0.056966193 -0.05948284
-0.025272492 -0.09126673 -0.11650981 -0.0052779065 -0.023502696 -0.020389222 0.025097717 -0.06290632
0.018445013 -0.042731114 -0.110676184 -0.025512373 -0.028218072 0.009051631 -0.088400766 -0.017740877
0.10935649 -0.0031104533 -0.07400651 -0.037541337 0.007876966 -0.09257705 -0.027448468 -0.05955351
0.018245852 -0.1027036 0.042737782 0.06704867 -0.110576384 0.014651183 -0.06482291 0.018365161
0.09361222 -0.07727884 -0.050314877 0.098638915 0.1110858 0.13862854 -0.071218684 -0.030803403
-0.04643104 -0.054700397 -0.10573768 -0.15081888 -0.13369173 0.018825153 -0.18261328 -0.022166045
0.027924424 0.048639197 -0.03501783 -0.11779972 0.039739177 -0.22967608 -0.11764129 -0.080924645
-0.011145112 -0.1439827 0.009374844 -0.032260522 -0.052014817 -0.12261744 -0.018498119 -0.118247375
-0.012302286 0.0528926 -0.03677285 0.029241042 0.07302718 -0.10874595 -0.01565743 -0.003929679
-0.099165484 -0.044628046 -0.074899144 -0.07699256 0.02023515 0.03309438 -0.05317612 -0.11478131
-0.024875505 -0.15182471 -0.053569403 -0.05465888 -0.019188631 0.065008946 -0.0012253992 -0.036994785
0.029867738 0.039925944 0.10382418 0.09289461 0.059165243 0.0033907276 -0.016269041 -0.029270163
0.08466745 0.073314376 -0.13590235 -0.043801874 -0.08682386 0.010236406 -0.12422399 -0.12834802
-0.022382488 0.06275132 -0.08076191 0.05004522 -0.12935902 0.11940484 -0.012127116 -0.08717907
0.004005295 -0.06929075 0.058599684 0.06836415 -0.030247115 0.086824626 -0.056282472 0.017974034
0.05137157 -0.11201373 0.05106147 -0.091027096 -0.08636024 0.026838083 0.00457774 -0.16994981
-0.014845065 0.030489698 -0.044728003 0.02830951 -0.13563755 -0.0056537236 -0.20470087 -0.0499422
-0.15665604 -0.017891861 -0.10635743 0.07705378 0.043633264 0.028875776 -0.09781075 -0.067707576
-0.028670354 -0.016884118 -0.124663286 -0.106147565 0.015508991 -0.10420467 0.0063812556 -0.12126979
-0.01604928 -0.011378884 -0.043739785 -0.1543127 -0.12489515 -0.046440694 0.045196217 0.07091423
-0.011501885 -0.14422394 -0.109155476 -0.06263391 -0.050556544 -0.13235387 0.075765215 0.014485957
-0.11684394 -0.09184385 -0.08987586 -0.12498029 -0.131949 0.010918718 0.036849007 -0.086868376
0.03374549 -0.013792724 -0.009196746 -0.043301057 -0.02619939 -0.025367882 -0.11689454 0.055251647
0.11188809 -0.045918383 0.08176603 0.012783813 0.037910145 -0.08434159 -0.03656555 -0.047478087
0.09364689 -0.023107076 0.050824933 0.088999465 0.012997639 -0.09168869 -0.034624837 -0.10398506
0.012292054 -0.11191399 0.060965605 0.171367 -0.0055827103 -0.1008605 0.008679054 -0.12822321
-0.0019310613 -0.10129739 -0.05902798 0.021348655 -0.0753867 -0.116581984 -0.08035204 0.006560439
-0.064103305 0.075394325 -0.049126826 -0.019551942 -0.113779366 -0.05503042 0.08543289 0.08629311

tpcnns.2.bias f4 [8]
00000000: b8a4 51bd 87dd 65bd 86f4 a6bd 8afd 80bd
00000010: c7d7 71be 9e75 ff3c 75ae e93d 7b24 d2bd
-0.05118248 -0.056119468 -0.08152108 -0.06298359 -0.23617469 0.031184014 0.11410228 -0.10260864

tpcnns.3.weight f4 [8, 8, 3, 3]
00000000: 0002 e6bd 40d3 1abd e29e 30bd 249e d4bd
00000010: fce0 18be 0e95 67be 19c9 afbd a082 59bd
00000020: 3edd 65be b0c7 12bd d589 623d 8841 2cbb
00000030: 3787 01be 5b45 9abb d17e 133d 04c0 4b3d
00000040: ccbf 7bbd 8740 adbd 31cf abbd c133 963c
00000050: 0dd7 b7bd 8e5c 353d d30b e63d 75da 15bd
00000060: 17f0 643d 8ad1 14bd fcbe ed3c 4335 a33c
00000070: fed5 03be 358f ccbc 5802 1bbd b44e acbd
00000080: 6f19 ab3d f828 fc3c d95e c238 64e7 6f3c
00000090: 1cd5 d73b b9ce 323d 82c6 3b3e 0b80 d23d
000000a0: ab26 a0bd 3e35 213d 379d c3bd f00c 10bd
000000b0: 7f28 73bc 1d40 aa3d 4342 bbbd 8378 d5bd
000000c0: 287e ed3c c99b 6dbb 0584 0a3d 76b7 8b3d
000000d0: d090 473d 4b94 cfbd ce71 c53c 8c69 a3bd
000000e0: bae7 ebbc 4d09 9ebc 73a6 1bbe 3bcc f5bc
000000f0: 10ad 34be 495b bcbd 0e15 56bc 35c1 5f3d
00000100: ef65 0abe d4f5 37bd a209 cf3c 4931 033d
00000110: 1e75 d93d 6fb3 4bbd 2ba3 cbbd 95bf 73bd
00000120: 0756 c3bc c063 bebd 5c81 933c 1c36 873d
00000130: 3d2a 87bb 6857 87bc 1744 433d b6da 163c
00000140: 1ce5 d3bd 9238 fabd 1bc6 f33b 7674 ddbc
00000150: 4741 f0bd b4ff c4bd aed0 3fbb 4c9f 63be
00000160: 924a dcbc f5b6 42be f802 9a3c 9ac1 bb3d
00000170: 11b1 9d3d fb8a 63bd 680b 7b3b 5efe acbd
00000180: 947d eabd 7c36 42ba 0b32 c63c 576f db3c
00000190: a9f1 3dbd c951 0abe 572c cebd ae4b 8d3d
000001a0: cae3 04be eea9 bebd 5b5f 93bd 14b8 28bd
000001b0: 8a10 8b3d c883 91bd 1319 8b3d 3526 5c3d
000001c0: 09e2 e5bd 2b7f 0abe 27ba 9fbd 04ef e7bd
000001d0: 529b 56be 8f45 6cb9 555e cabc a397 b8bd
000001e0: 9bd5 84bb 41f3 b7bd c605 e6bd bc9c dabd
000001f0: aeac 8abd 4ccd b63d a842 683d f3f1 0a3e
00000200: 3249 aebd 7c1c d7bd e14e 40bd fa01 cfbd
00000210: 88ff 2abd 9cf3 413c 40d2 e9bd 79e3 e8bb
00000220: ca20 323d 89cf 0f3a 6d28 8fbd a21c 0dbd
00000230: a0ba 16be 4733 843d 5d2e 52bc ac45 dc3d
00000240: 3d43 aa3d 779e 13bd 5156 053e 81da 9abc
00000250: b34e babd f1f0 c6bd a936 c2bd c7fd 45bd
00000260: 781f 59bd 6e08 d1bd 23b4 993c c790 053c
00000270: 95a3 c6bd 9cab 383d 3043 8abd 828e 963d
00000280: b9bf 373c c4c6 19be efe9 5c3d d023 41bd
00000290: a81f 10bc 227f c8bd f9c3 e03b 4197 aebd
000002a0: 1507 7abd 2629 253c fc1b 3a3d b3c0 fbbc
000002b0: c4bc b13d 5740 583c 2ca3 87bd 0c15 9e3d
000002c0: 55df 383d bd77 623d 114a 18bd 6eb1 603c
000002d0: da02 dcbd 3194 1c3d 2e20 913d ce00 f53b
000002e0: 62eb 1fbe e4f3 33be d19c 253c 6886 f3bd
000002f0: d4ca 08be d5a5 07be b800 5c3d 3c09 933c
00000300: e47e c83b 1ac9 bdbc 8f31 353d a897 03be
00000310: 143f 283d e771 a8bd 5621 db3c 5888 9b3d
00000320: 0d8b 8d3d c25d 80bd 2dc2 513c c86c aabd
00000330: d9f5 34bc 7a65 febc 14f2 8abd 7d85 0f3d
00000340: 4ef4 3abd 611b 843d 8dbf cb3d b53b e3bd
00000350: 9cbb b339 a06c 42bc 436e c8bd 88d8 8f3d
00000360: dec5 11bd d343 d13d 17da a7ba f8aa a7bd
00000370: f9c0 2fbd f84c e8bc 9552 8abc d296 003e
00000380: e215 7bbd ebc3 02bd 1c02 afbc 70b8 b23c
00000390: 1e2a c13b 0246 b8bd b470 31be b929 2b3c
000003a0: 79e9 f5bd 0868 e8bd 893f c23d 0c4c f33d
000003b0: 07e5 27bd b7c2 20bd be65 8a3d 63fc 673d
000003c0: d133 7c3d ffe1 99bd 63dc 93bd 34cf fb3c
000003d0: 38ee 9bbd 6ee8 25bd 0e4b 01be 4b9d acba
000003e0: 09b8 413d 664e b7ba a951 003d a087 883c
000003f0: f96e d23c 7583 b0bd ada9 27bd c907 e9bc
-0.1123085 -0.03779912 -0.043120272 -0.103817254 -0.14929575 -0.22615454 -0.08583278 -0.05310309
-0.22447678 -0.035834968 0.055307228 -0.0026284177 -0.12649237 -0.004707975 0.036009613 0.049743667
-0.06146221 -0.08459573 -0.08389128 0.018335225 -0.089765646 0.04427772 0.11232724 -0.03658529
0.05589303 -0.036332645 0.029021733 0.019922858 -0.128746 -0.02497063 -0.037844032 -0.08413449
0.083544604 0.030781254 9.2683076e-05 0.01464257 0.006586684 0.043654177 0.18337443 0.102783285
-0.07819875 0.039357416 -0.09551471 -0.03516859 -0.014841198 0.0831301 -0.09143498 -0.104233764
0.02899082 -0.0036256185 0.03381731 0.06822102 0.04872209 -0.101357065 0.024102118 -0.07979116
-0.02879702 -0.019291544 -0.15200214 -0.030004611 -0.17644143 -0.09197099 -0.013066543 0.054627616
-0.13515447 -0.044912174 0.025273148 0.032029424 0.106180415 -0.049731668 -0.09943231 -0.05950888
-0.023844732 -0.092963696 0.01800602 0.066021174 -0.0041249082 -0.01652117 0.047672357 0.009207418
-0.103464335 -0.12217821 0.0074393875 -0.027033072 -0.11731201 -0.09619084 -0.002926867 -0.22228736
-0.026891027 -0.19015105 0.018800244 0.09167786 0.07699788 -0.055552464 0.003830636 -0.08446954
-0.114497334 -0.00074086315 0.024193784 0.02678649 -0.046373043 -0.13507761 -0.10067051 0.068992004
-0.1297752 -0.09309755 -0.07195922 -0.041191176 0.06790264 -0.071052134 0.06791892 0.053747375
-0.112247534 -0.13525073 -0.077991776 -0.113248855 -0.20957687 -0.00022532626 -0.024703184 -0.090132974
-0.004053784 -0.08981944 -0.1123157 -0.10674426 -0.06771217 0.08925876 0.056704193 0.13568859
-0.08510055 -0.1050348 -0.046950225 -0.10107799 -0.0417476 0.011837866 -0.11417055 -0.007107195
0.0434883 0.0005485942 -0.069901325 -0.034451135 -0.1471963 0.06455093 -0.012828437 0.10755476
0.08313606 -0.036039796 0.13021208 -0.018903019 -0.09097042 -0.09713925 -0.09483082 -0.048337724
-0.053008527 -0.10206686 0.018762654 0.008152193 -0.096991695 0.045085534 -0.06751096 0.073514
0.011215144 -0.1501723 0.053934034 -0.047153294 -0.00879661 -0.09789874 0.0068592993 -0.08524943
-0.06104191 0.010080611 0.045436844 -0.030731535 0.08678582 0.013198934 -0.066229194 0.07718858
0.04513486 0.055289973 -0.03718001 0.0137141775 -0.107427314 0.038227264 0.07086216 0.0074769026
-0.15617135 -0.17573506 0.010108189 -0.1189087 -0.13358623 -0.13246854 0.053711623 0.01794874
0.006118642 -0.023167182 0.044236716 -0.12850821 0.04107578 -0.0822485 0.026749294 0.07594365
0.069112875 -0.06267883 0.012802643 -0.083215296 -0.011044943 -0.031054247 -0.06784454 0.035039414
-0.045643143 0.064505346 0.09948645 -0.110953726 0.0003428132 -0.0118667185 -0.09786656 0.07023722
-0.03558909 0.102180146 -0.0012806085 -0.081869066 -0.042908642 -0.028357014 -0.016885081 0.12557533
-0.061300166 -0.031925123 -0.02136331 0.021816462 0.0058949133 -0.08997728 -0.17328149 0.010446959
-0.12007422 -0.113479674 0.094847746 0.11879739 -0.040989902 -0.039248195 0.06757687 0.05663718
0.061572853 -0.075138085 -0.0721977 0.03073845 -0.07613796 -0.040504865 -0.12626287 -0.0013169436
0.04729465 -0.0013985157 0.031327877 0.016666234 0.025687682 -0.086188234 -0.0409333 -0.028446095

tpcnns.3.bias f4 [8]
00000000: 0d83 8bba f0ef 5ebd db4d aabe f5a0 82bd
00000010: 04af 08be dad3 b4bc 0125 29bd ef1e 2abd
-0.0010643915 -0.05442804 -0.33262524 -0.06378356 -0.13348013 -0.022073675 -0.041295055 -0.041533407

tpcnns.4.weight f4 [8, 8, 3, 3]
00000000: d804 34bd 5b12 cdbd 0e89 5dbd f244 a8bd
00000010: d9c4 c9bd 0e24 14bd d81e 0a3c 5b5e cabd
00000020: 68f5 063c 1c8c 3cbd 983c 07bc 4698 2cbd
00000030: 6c65 d4bc 0e0a 2cbd 883b 6f3c 72d5 b9bd
00000040: f711 b1bd 3cd5 863c 4637 763d 543f e13c
00000050: c628 d0bd 0425 f33c 365d debd f0c1 993b
00000060: ba68 013d da13 37bd 5847 91bd cc89 26bd
00000070: 47e0 e43d 6001 a0bc fb30 e33d 6db7 bc3d
00000080: d502 d43d 6e6d 52bd cfe0 96bd 76d0 723d
00000090: 085e 36bc 853c 7bbd 8528 e93d dafa 073d
000000a0: e518 bd3d 83e7 9c3d bc23 823c 6da6 87bd
000000b0: 1aac 1f3d 1397 9e3d fe85 093d a57b 86bd
000000c0: f05d 24bd 8d56 db3d d9cf d43d 5cfe 1bbd
000000d0: b7cb 62bd 185c 553c ccab cebc 2e1a 553d
000000e0: 492a 80bd ca75 c9bd 16e2 1b3d 7721 a63d
000000f0: 0c7f dcbd dcc1 18bd 9c89 8e3c b0f1 a6bd
00000100: a408 ba3c 5c85 c6bc 32d3 053d 5952 b73d
00000110: 8028 be3a f040 58bd 1365 c93d 8f7e d4bd
00000120: 8052 513b 0cb1 4cbd 4599 a83d 4bec a83d
00000130: 5dc9 d83d 00fb d9bb 2710 80bd 20bb 373b
00000140: d635 7b3d 2cad 843c 9cb6 83bd 7802 cbbc
00000150: de04 113d 4085 cdbc 8087 4d3a c741 8fbd
00000160: 38ed 85bd 0698 57bd 7b2e d43d 18cf 553c
00000170: a4d8 37bd b0ed 64bd 3205 23bd b28d 143d
00000180: 84bc c43c e047 bf3b f49d c23c 067c 373d
00000190: 4015 f9bb f6ab 3d3d 61a6 933d f8cb cfbd
000001a0: c33c d13d e8db a4bd 1c0d cdbd 762b b3bd
000001b0: a0da eebc 6893 b7bc 721d 9bbd c0a1 ccba
000001c0: 4620 efbd 1b8c 8e3d ce30 2e3d 7048 d5bb
000001d0: c021 6bbc 4d9a a2bd dae6 5e3d 2d2d 913d
000001e0: 8dd2 d5bd 2bd6 a93d 3fda 88bd 7734 823d
000001f0: 1f29 bc3d 70bb 47bc 8078 603b 4c25 b23c
00000200: f15d d93d 00ac 7a3b 4365 a23d 60f4 47bb
00000210: 419c b33d 96a6 333d 8795 e73d 12f1 2bbd
00000220: 9902 dc3d 2c22 84bd 1229 0abd 804e 1b3a
00000230: 086f a0bd 163d 56bd 200c e6bc 7169 eb3d
00000240: e5f9 bbbd fc42 a3bd 2edc 373d 29eb e7bd
00000250: cc46 c93c c07b a6bd b5e9 9e3d 17fa b33d
00000260: de11 90bd 4fc7 8c3d 7e80 9abd 43a0 d33d
00000270: efe9 e43d 6db2 d93d 0f70 e23d 0967 8b3d
00000280: 76c9 9cbd 94dd 12bd 8cec 82bd 15a0 853d
00000290: c3f5 a83d 8500 b0bd 1811 0dbd 6154 853d
000002a0: 002f b5bb 0ac2 87bd 484e 9bbd 3f4f 963d
000002b0: 04bd c23c 5c74 a83c 51fa eb3d ec24 75bd
000002c0: 5574 aa3d 005f ab39 60e3 953b 8179 e93d
000002d0: f2c5 26bd 4fc1 d9bd a7bc b93d d10a ab3d
000002e0: 9050 f83b 68ba 293c 1f8d ca3d 5c1a bb3c
000002f0: 581b eabd 1893 dbbc 262d 733d 2514 983d
00000300: 3d9c 9bbd 14dd c33c 3cc5 febc 1107 c13d
00000310: 6479 803c d1b8 983d 8fbe c93d 52b0 c2bd
00000320: 8066 1ebc 0a27 b5bd f04d b5bd 7220 253d
00000330: 0078 f7ba 747a c5bc 3404 95bd 1249 a7bd
00000340: 4c7e cf3c 3253 8bbd 3c09 d9bd d89b 1cbc
00000350: 7062 c1bc c262 4abd 9291 593d b046 7dbd
00000360: 4dea 883d 4b57 ed3d ccdd 9a3c b704 e83d
00000370: 61bf 893d 72c0 683d 9e92 8abd b165 a93d
00000380: 5b86 d33d af85 d43d ae40 653d 0a0f 793d
00000390: 062d e4bd 7412 c4bd 1c47 36bd 79b1 d03d
000003a0: 546b c3bd 0372 68bd 7dfa e0bd bf87 e93d
000003b0: 8855 593c e1d5 85bd d795 e8bd dc02 52bd
000003c0: 38ae 2e3c 3b17 8f3d fc89 dcbd 0591 dc3d
000003d0: fc4b bfbc 8301 afbd 3df8 8a3d 3ba6 843d
000003e0: 086b 093c 9e98 8bbd e00f 45bb b29d d2bd
000003f0: a0c3 033b 6caf 50bd 804f d8bd c092 b0bb
-0.04394993 -0.10013267 -0.054085784 -0.08216275 -0.09851999 -0.036167197 0.008430205 -0.09881278
0.00823722 -0.046032056 -0.008254193 -0.042137407 -0.025927268 -0.042001776 0.014601596 -0.090739146
-0.08646005 0.0164591 0.060111307 0.027496018 -0.10164027 0.029680736 -0.10857622 0.0046923086
0.031594016 -0.044696666 -0.07093686 -0.040658757 0.1117559 -0.019531906 0.11093327 0.09214673
0.10352103 -0.05137389 -0.073670976 0.059280835 -0.011130817 -0.061337013 0.113846816 0.033198215
0.09233264 0.07661345 0.01588618 -0.0662354 0.03898249 0.07743659 0.03357505 -0.06566552
-0.04012865 0.107098676 0.10391206 -0.038084373 -0.05537006 0.013022445 -0.025228404 0.05202692
-0.06258065 -0.098369196 0.03805741 0.08111852 -0.1076642 -0.037294254 0.017399602 -0.08151567
0.022709198 -0.024233513 0.032672115 0.089512534 0.001450792 -0.052796304 0.098337315 -0.10375702
0.0031940043 -0.049973533 0.08232359 0.08248194 0.10585282 -0.006652236 -0.06253081 0.002803512
0.06133064 0.016195856 -0.06431314 -0.02478145 0.035405032 -0.025087953 0.00078403205 -0.06994968
-0.065393865 -0.052635215 0.10360428 0.013049863 -0.04488434 -0.05589074 -0.039799877 0.036267944
0.024015673 0.0058374256 0.023756959 0.044796012 -0.00760141 0.046306573 0.07209469 -0.10146326
0.102166675 -0.08049756 -0.10012266 -0.08748524 -0.029156983 -0.022409156 -0.075739756 -0.001561217
-0.116760775 0.06960317 0.042527013 -0.0065088794 -0.014351308 -0.07939587 0.054419376 0.07088695
-0.1044055 0.082928024 -0.06682252 0.06357663 0.09187531 -0.012190685 0.003425151 0.0217463
0.10613621 0.0038249493 0.079294704 -0.003051065 0.087700374 0.04386004 0.11307817 -0.04197795
0.10742683 -0.0645183 -0.033730574 0.0005924478 -0.078336775 -0.05230435 -0.028081954 0.11494721
-0.09178523 -0.07971761 0.044887714 -0.1132415 0.024569891 -0.08129072 0.0775942 0.08787935
-0.07034658 0.068739526 -0.07544039 0.10333302 0.11177432 0.10629735 0.1105653 0.06806762
-0.07655613 -0.035855845 -0.06392774 0.06524674 0.0825 -0.08593849 -0.03444013 0.065102346
-0.0055292845 -0.06628807 -0.0758329 0.07339334 0.02377177 0.020563297 0.115223534 -0.059849665
0.0832297 0.00032686442 0.0045742244 0.11400128 -0.04071612 -0.10632574 0.09069186 0.083516724
0.007577963 0.010359384 0.09890198 0.022839718 -0.11430997 -0.026803538 0.05936923 0.07425717
-0.075981595 0.02390913 -0.031099908 0.09425176 0.015682884 0.07457126 0.09850799 -0.09506287
-0.009667993 -0.08845337 -0.08852756 0.040314145 -0.0018880367 -0.024106242 -0.07276192 -0.08168234
0.025328778 -0.068029776 -0.105974644 -0.00955864 -0.023606509 -0.04941059 0.053117342 -0.06183499
0.06685314 0.115889154 0.01890459 0.11329024 0.06725956 0.056824155 -0.06766246 0.08271349
0.10328361 0.103770606 0.055969886 0.060805358 -0.111414 -0.09573832 -0.04450141 0.101901
-0.095419556 -0.056749355 -0.10985277 0.11402845 0.013265021 -0.06534935 -0.11356705 -0.05127226
0.010661654 0.06986853 -0.10768506 0.10769848 -0.023351662 -0.0854521 0.06785629 0.064770184
0.008387335 -0.06816219 -0.0030069277 -0.10283984 0.0020105615 -0.050948545 -0.105620384 -0.0053885877

tpcnns.4.bias f4 [8]
00000000: 987a dbbd 6b64 d1bd d2ea 2d3d 42e3 d7bd
00000010: 6c29 6cbd 10fd 9fbb bf50 a93d 7e92 133d
-0.10716742 -0.10224231 0.04246027 -0.10541393 -0.05765669 -0.0048824623 0.08267354 0.036028378

tpcnn_ouput.weight f4 [8, 8, 3, 3]
00000000: 302b 4eba 6b1e 943d 7a29 c33c 5193 c93b
00000010: 047e 86bb 46bd a5bb 7d67 063d 2217 09bd
00000020: 4261 cdbd 3fe7 a13c 3f3c 50bd 6dd5 6f3d
00000030: 124e a9bb 1013 57bc 9fba 843c 2de4 59bb
00000040: 0a5e adbc 19e9 1a3d 157b 17bb 3bbb 57bd
00000050: 83e1 43bc f932 c43b febf edbc af69 84bb
00000060: 82d2 eb3b bb4d 8cbd 6041 7a3c dee0 8d3c
00000070: 7216 ca3c 956a 1b3c 87e4 92bc 6a52 d63b
00000080: 3fb6 ad3c 21ba 2bbc 3cc3 e43d 36b6 02bd
00000090: 7941 053c 15ff 4b3c 005c 1d3c 7fe5 1f3d
000000a0: e502 40bb df56 513d 4b10 3a3d 056e 55bd
000000b0: ac75 8b3d fe99 d5bc 2969 c13c 0c32 c9bc
000000c0: 33cf 15bd 7996 2e3d caef 9cbc 8912 1bbd
000000d0: 73b1 393d 85d8 bfbb 3c9b 6fba 399d 973d
000000e0: 8ec7 a03c e830 0f3d 5c85 573d fad4 3ebb
000000f0: 956e 003d dd24 f13c 0f49 a93b 852b 223b
00000100: ac94 49bb 1019 513c 7001 063c 2df5 443c
00000110: e57f 393d afc6 73bc df1a 57bc 1897 f8bb
00000120: 8354 433b 7611 88bd a98d adbc ac72 6e3c
00000130: 8d63 15bc bed9 a03c 7d2c 87bc f9bc 383d
00000140: ec0c dcbc 55b5 bcbc 1ccb 11bd 3f6d 8bbc
00000150: 6883 43ba 3c6e 8b3c d7fd 9ebc 22b9 7d3b
00000160: ff50 2dbd d8af 1b3d dbda af3c 169b d03d
00000170: d707 86bb aff2 30bc 5093 60bc d1d9 d3bc
00000180: fa25 3fbc 443b 0abe 1947 97b9 b754 14bd
00000190: 2e48 343d 0c6c a83c 1c93 4ebd 5bc1 053c
000001a0: d476 b4bb ed4e 9abc 0049 983d e77b 0ebd
000001b0: ee14 a63c 49f1 b8bd a890 3b3d 194f a7bb
000001c0: 3a2a 8dbd b8f8 0e3d bdae 2cbb 541c 3ebc
000001d0: 5ded 0c3c 8035 e93b 2764 f13c 00ba 133c
000001e0: e658 f9bc 8671 4ebb 4102 9abc 4a42 92bb
000001f0: 1aa2 be3d a2ef 7cbc 6b24 cc3c 7779 dfbc
00000200: 44e2 35bc b41c 6e3c a848 b93b 7f9c 00bd
00000210: 0882 9c3b 03e7 923d c12e 0a3c 2394 063c
00000220: ba9a 233c cde8 143d fcf1 22bc 2853 30bc
00000230: 0050 d73d 38d5 e0bc 967e a6bc ab6e 3bbc
00000240: 2d6d 443b 1cf3 86bc 58bb c53b 1357 803c
00000250: 4c3e 0bb9 e902 34bc 7d38 05bd df2e 08bd
00000260: e092 413d d6e6 60bc 083a c4bc d922 8dbc
00000270: 72d0 ad3a b7db 27bd ce12 cf3a e4c4 99bb
00000280: 2b47 19bd f32b 59bb 374b 7e3c 82fa 7d3d
00000290: 0468 94bc ac96 11bd 7b32 583d 4ded 163c
000002a0: f5cf 1fbc 4c4a d83d d7cc 3bbc 0933 2fbd
000002b0: 6d9e 2d3d b99f 82bb fa58 f4bc c96b 2a3d
000002c0: 8e96 9fbc f036 ae3b 3902 d83c 5001 2cbd
000002d0: cbb1 a33c d499 4fbd 0380 8c3c db89 4d3a
000002e0: 035e 6bbd f26e 743c d1bd ae3a 55e4 62bd
000002f0: f200 943c 6e9f f4bb 3b5a e03b ec7a 143b
00000300: a3f4 a2bc d29f 213c 6413 fdbb 2c38 7abb
00000310: 3229 a33c 0d62 9e3c fcab f33b 6a43 9ebc
00000320: b3ee 7ebc 496a 573c 4fef 2e3c caf3 2ebc
00000330: 9d49 823c 3da5 723b 23f9 ab3a a47c 80bb
00000340: 041a 05b9 79b3 943d 2021 8ebc b8b1 a83c
00000350: e8c0 9e3d 2866 a7bb 924d 6e3b ad4f 513c
00000360: a21d 2ebd c5e2 7abe 825d 61be 7efd 133d
00000370: 26f2 17bc 0955 9d3c 439e a6bc 59b0 043e
00000380: 9ad4 d5bd 5c62 a1be 4856 e3be 07ff b8be
00000390: bc80 9cbe 82f3 0cbf 9671 acbe 8c49 cbbd
000003a0: 1374 0abe fbef 33bd 6c22 783d 3e7d 213e
000003b0: 7342 1a3e a2bb d43d a3ae d03d 7d38 5c3c
000003c0: 17a9 fcbc 6a0f e03d fd6c fe3b c314 f8bd
000003d0: 6ea1 66be 95d9 45be 9fdb 5dbe 77cc f0be
000003e0: a075 36be 08b8 86bd 45b1 513e 2ae0 043e
000003f0: e326 42be c976 86be f4f1 86be 03a9 9abe
-0.0007864712 0.07232364 0.023823489 0.0061515947 -0.0041043777 -0.0050579635 0.032813538 -0.033469327
-0.10028316 0.019763587 -0.050838705 0.058553148 -0.0051667774 -0.013127103 0.01620227 -0.0033247576
-0.021163005 0.037819955 -0.0023114134 -0.05266879 -0.011955622 0.0059875217 -0.029022213 -0.004040919
0.0071967253 -0.068507634 0.015274376 0.01731914 0.024668906 0.00948586 -0.017931236 0.0065405862
0.021205066 -0.010481388 0.111700505 -0.03191205 0.008133286 0.012450953 0.009604454 0.039037224
-0.00292986 0.051108237 0.045425694 -0.052106876 0.068095535 -0.026074406 0.023609715 -0.024559997
-0.036574554 0.04262397 -0.01915731 -0.037859473 0.045335244 -0.0058546686 -0.0009140258 0.07403035
0.019626405 0.03495875 0.052617416 -0.0029118643 0.03135546 0.029436523 0.00516618 0.0024745178
-0.0030758781 0.012762323 0.008179054 0.012021345 0.045287985 -0.014878913 -0.013128965 -0.007586371
0.0029805012 -0.066439554 -0.021185713 0.014553707 -0.009117973 0.019635078 -0.016500706 0.045102093
-0.02686163 -0.023035685 -0.03559409 -0.017019866 -0.0007458241 0.017020337 -0.01940815 0.0038715084
-0.042313572 0.038009495 0.021466663 0.1018583 -0.00409029 -0.010800048 -0.013706997 -0.025860699
-0.011666769 -0.1349917 -0.00028853936 -0.036213603 0.04401415 0.020559333 -0.050433263 0.008163775
-0.0055073295 -0.018836463 0.07435799 -0.03478613 0.020273652 -0.090303965 0.04579225 -0.0051058647
-0.0689282 0.034905165 -0.002634927 -0.011603434 0.008601514 0.0071169734 0.029466702 0.009016514
-0.030437898 -0.003150077 -0.018799903 -0.0044634687 0.09308262 -0.015437992 0.02491971 -0.027279599
-0.011101309 0.014533211 0.0056544133 -0.031399246 0.004776243 0.07172968 0.008433999 0.0082140295
0.00998562 0.03635483 -0.009945389 -0.0107620135 0.10513306 -0.02744542 -0.020324033 -0.0114399595
0.00299723 -0.016473345 0.006034296 0.01566652 -0.0001327928 -0.010987022 -0.032524575 -0.033247825
0.04725921 -0.013726911 -0.023953453 -0.01722853 0.0013260974 -0.04098102 0.0015798451 -0.0046926606
-0.037421387 -0.0033137768 0.015520862 0.06200648 -0.018116005 -0.035544083 0.052782517 0.00921185
-0.009754171 0.10561046 -0.011462412 -0.04277328 0.042387415 -0.0039863256 -0.029827584 0.0416067
-0.01948097 0.0053166077 0.026368247 -0.04199344 0.01998224 -0.05068381 0.017150884 0.00078406715
-0.057462703 0.01491903 0.0013331716 -0.055393536 0.018066857 -0.0074652946 0.006846694 0.0022656275
-0.019892043 0.009864764 -0.007723259 -0.0038180454 0.019917104 0.019333864 0.0074362736 -0.019319255
-0.01555984 0.013147899 0.010677173 -0.010678241 0.015904242 0.003702476 0.0013120513 -0.0039211083
-0.0001269356 0.07260794 -0.01734978 0.020592555 0.07751638 -0.0051086135 0.0036362153 0.012775344
-0.04250873 -0.24500568 -0.22008327 0.03613042 -0.009274041 0.019205587 -0.020339137 0.12957896
-0.10440941 -0.31520355 -0.44401765 -0.3613207 -0.30566967 -0.55059063 -0.3368041 -0.09926137
-0.13520841 -0.043930035 0.060579702 0.15770432 0.15064411 0.103873506 0.10189559 0.013441202
-0.030842347 0.1094044 0.0077644573 -0.12113335 -0.22522518 -0.19321282 -0.2166581 -0.47030994
-0.17818308 -0.0657807 0.20477779 0.12976137 -0.18960147 -0.262625 -0.2635647 -0.3020707

tpcnn_ouput.bias f4 [8]
00000000: fc2c 02bd b274 9abc 23db 91bb 4964 0fc0
00000010: 861e 32c0 00de 38c0 07e1 47bf f740 903d
-0.03178118 -0.018854473 -0.004451172 -2.240496 -2.783113 -2.8885498 -0.7807774 0.07043641
