checkpoint/custom_waymo/val_best.pth (torch_old, 21722 bytes, 28 tensors)

st_gcns.0.gcn.conv.bias f4 [5]
00000000: 8c98 e1bb b1d0 babe 7224 cd3e 27ca e8be
00000010: 30e6 d8ba
-0.00688464 -0.36487344 0.40066868 -0.4546673 -0.0016548093

st_gcns.0.tcn.0.weight f4 [5]
00000000: 2b5d 853f 4d8e 733f 3928 7a3f bad8 763f
00000010: b683 7c3f
1.0419058 0.9513901 0.97717625 0.9642445 0.98638475

st_gcns.0.tcn.0.bias f4 [5]
00000000: bdaa 163e 20ba ddbd baa6 573e a01a 913e
00000010: 39f4 843d
0.14713569 -0.10826516 0.21059695 0.28340626 0.06491894

st_gcns.0.tcn.0.running_mean f4 [5]
00000000: c8b5 9239 9574 4abc efca 5c3c 1efc 83bc
00000010: a5da a6b9
0.00027982728 -0.012356897 0.0134761175 -0.01611143 -0.0003182489

st_gcns.0.tcn.0.running_var f4 [5]
00000000: bc1a 0a3a 68d5 a73b af4f c53b c11b 0e3c
00000010: b153 a339
0.0005268266 0.0051218756 0.006021462 0.008673609 0.00031152138

st_gcns.0.tcn.2.weight f4 [5, 5, 3, 1]
00000000: 184b 89bd 5a97 ec3d fe21 25bd 3908 e2bd
00000010: 51f5 83bc 2433 08bc 86f3 c4be c429 243c
00000020: d99d 2cbc 3e77 89be 4011 b1bb d151 feba
00000030: d581 78be dfa5 b1bd 5570 24bc ab49 b5bd
00000040: 3edf cebe 39b3 0cbe 8d1e 70be 2660 8dbd
00000050: ca60 f3bd 64bf ddbd f458 35be a6b9 973d
00000060: e2f5 33bd e63f d1bd 3e46 bf3d b448 183e
00000070: c068 6abd 0d30 863e 2911 8c3d 00fc 8ebd
00000080: d33a 8c3e 9845 4bbe 0fad 39be d34e 243e
00000090: 4c05 e3bd 8776 48bd f23e 87bd 4870 4bbe
000000a0: ceec 0f3d 2aad 9fbe d3d2 0c3d cd21 29be
000000b0: 20fa 56be 905d babe eb83 23be 072b 173d
000000c0: 01ac 91be f8d7 e53c 32a8 b6bc e3b0 bfbe
000000d0: ace9 8ebc 0d77 5e3d d4d1 723c 7156 93bc
000000e0: 6d44 0e3e fdbd 143c 036e d03d 8829 31bc
000000f0: db82 03be e6d5 95be 07e1 ee3c 81e5 4dbe
00000100: 0907 b8bd e1ff bfbd bb24 c9bc 06a4 63be
00000110: e882 a53d 34ce 47be 0480 493d 891a 2f3e
00000120: 148b a7bd 1047 78be a8b4 843e
-0.06703776 0.115523055 -0.04031562 -0.110367246 -0.016108187 -0.008312974 -0.38467044 0.010019723
-0.010535681 -0.26848787 -0.0054036677 -0.0019403045 -0.24268277 -0.086742155 -0.010036548 -0.08851942
-0.40404695 -0.13740243 -0.23449154 -0.069031045 -0.118836954 -0.108275205 -0.17709714 0.074084565
-0.043935664 -0.10217266 0.093395695 0.14871484 -0.057228804 0.26208535 0.068392105 -0.06981659
0.2738863 -0.19850767 -0.18132423 0.16045694 -0.11084995 -0.04894116 -0.06603803 -0.1986705
0.035137944 -0.311868 0.034380745 -0.165168 -0.20993853 -0.36399508 -0.15968291 0.03690627
-0.2845154 0.028057083 -0.022296999 -0.3743964 -0.017445408 0.054312754 0.014820535 -0.017985554
0.1389329 0.0090785 0.10177233 -0.0108131245 -0.12842886 -0.29264754 0.029160036 -0.2010708
-0.08985717 -0.09374977 -0.024553647 -0.22230539 0.08081609 -0.19512254 0.04919435 0.17099966
-0.08180824 -0.24245858 0.2591908

st_gcns.0.tcn.2.bias f4 [5]
00000000: deaa 393e 46f2 7e3e 458f adbd b185 5fbd
00000010: 041f e83c
0.18131587 0.24897107 -0.08474592 -0.054570857 0.028335102

st_gcns.0.tcn.3.weight f4 [5]
00000000: 0ae4 133f 2d42 5b3f e0d1 3d3f f61c 303f
00000010: d71e 043f
0.57769835 0.8564785 0.7414837 0.6879419 0.5160956

st_gcns.0.tcn.3.bias f4 [5]
00000000: 3ca0 f73d ae66 32be 004d 87bd 5ac6 80bd
00000010: 50b6 2f3e
0.12091109 -0.17421982 -0.066064835 -0.062878326 0.1715939

st_gcns.0.tcn.3.running_mean f4 [5]
00000000: 13dc 77be a912 0ebe 270c f4be 7748 b5be
00000010: 9f1d a6be
-0.24205045 -0.13874306 -0.47665522 -0.3540685 -0.32444474

st_gcns.0.tcn.3.running_var f4 [5]
00000000: 9d32 013e ac1b 9c3e 8a19 573e db07 433e
00000010: d147 2a3e
0.12616964 0.30489862 0.21005836 0.19045965 0.16628958

st_gcns.0.residual.0.bias f4 [5]
00000000: f615 58be 43b7 05bf 7174 dabd 21a2 86bd
00000010: 6910 113e
-0.21102127 -0.5223276 -0.10666741 -0.065738924 0.14166416

st_gcns.0.residual.1.weight f4 [5]
00000000: 49e1 363f e7e6 843f 2dfc 513f 46b9 523f
00000010: 2c0d 753f
0.7143751 1.0382966 0.82025415 0.82313955 0.95723224

st_gcns.0.residual.1.bias f4 [5]
00000000: 3ca0 f73d ae66 32be 004d 87bd 5ac6 80bd
00000010: 50b6 2f3e
0.12091109 -0.17421982 -0.066064835 -0.062878326 0.1715939

st_gcns.0.residual.1.running_mean f4 [5]
00000000: 87b2 56be 7e5a 07bf 301e cebd ea1c 88bd
00000010: dc6b 0a3e
-0.2096654 -0.52872455 -0.100643516 -0.0664614 0.13517708

st_gcns.0.residual.1.running_var f4 [5]
00000000: 9641 2c38 724d 713a 87b4 5a3a 49ba 4137
00000010: 467e 803a
4.1069077e-05 0.00092049607 0.0008342941 1.1547069e-05 0.0009803257

tpcnns.0.weight f4 [8, 8, 3, 3]
00000000: eddf 603c 5135 8b3c 1cac 7cbc 6404 303c
00000010: d807 f33c 67e7 d13b 93cf 8ebd 6d79 15be
00000020: 6b5f 9dbd b8db 093d 1bb6 223e 2ad3 183d
00000030: f65e fabc 801c 00be 8986 87bd 7747 41bd
00000040: 1bc1 bfbd 68c1 363d d2b2 a6bc bdae 1dbd
00000050: 289f 99bd ead7 e33c 6a1f 52bd cc74 393d
00000060: ea03 813d 7a42 a63d fd72 4e3d b55d 943c
00000070: fe85 56bd 69d4 283d adf6 68bc 5619 2bbd
00000080: 2ba8 2abc fcc2 0cbb 18e3 97bd aec5 a8bd
00000090: 0938 af3c 7051 bb3d 9f4d a13c 1c85 0c3e
000000a0: 4226 b53d a45d c33d 9adb 08be 0f86 4bbe
000000b0: 8fca 33be 77ac 893c e705 92bd d7e9 083a
000000c0: 2cc0 823c a31a d8bc a6a4 183d 4c5b 30bd
000000d0: d81b 553d 2139 433d 9d8a cabc e581 bbbd
000000e0: 2743 19bc c161 ad3c cbea 53bd 9836 ab3b
000000f0: ecb9 3fbd 7416 50bd 246b cfbd ea8e 373b
00000100: f3dd d1bc 086b 8bbc 40d3 ccbc 2dce febd
00000110: 34fe 4cbc 710f 2dbd a3f1 e83c deb9 95bd
00000120: 855a 82bd cb02 8dbc 4adf 61bd 9d05 e5ba
00000130: 9816 a4bc 42f6 c0bd d857 c4bc 36d9 fcbc
00000140: 33b6 a23d 2798 943d d1ab 113c 6b2f 0abc
00000150: 3d0b 43bd c89c 543d 8bf3 cfbd 9b03 0b3c
00000160: 739f 7c3c f404 e93b 1e1d b43d 60a9 003d
00000170: 5ade 163d 36ef 6f3d 95c1 1e3d 51f0 603d
00000180: 1a90 a8bd f914 5dbd 81e4 b5bd ed83 51bd
00000190: 49f5 85bd 5ab5 d6bc c482 593d 7e65 113d
000001a0: 43e8 64bc 87b0 b5ba dbb5 dbbd b3c4 5b3d
000001b0: e128 493c 266d 0dbd deed 96bc ae02 98bc
000001c0: 0d3c 84bd 0e1c 86bd ee22 c33c 8919 d33d
000001d0: 7633 70bd 957e 1a3d 8d5a 08be a08a d33a
000001e0: d807 0dba db5e 46bd d1da 32bc a92f 84bd
000001f0: bb58 343d f89d e8bb 21f7 bbbd 7dfe 9cbd
00000200: a7f9 bcbc d66c 59bd 044a a7bd 0d90 fe3c
00000210: 0763 bf3c d167 0fbc b31a 68bd 0956 81bd
00000220: fdce e4bb 2325 cd3b 1f04 d03c dd56 0bbe
00000230: 472e dabb 3e8f 013d b541 223c c8a4 88bd
00000240: 71f0 f73d 344b a3bd cba0 563d 121d 73bd
00000250: b7b2 71be 2b78 d3bd cf85 61bd 13de 24bd
00000260: b887 eebc e5db e0bb 2242 4fbe 6b20 09bd
00000270: 43bb 93bb c324 94bd 4765 ed3c bb92 7abd
00000280: 4d4c 54be c73c 07be eadd 883d 368e 14bd
00000290: f80d e03c f2b8 9e3c 5eb5 c8bc b21a 0cbc
000002a0: 01a9 e03c 34f8 98bc af9f bd3d 7a7f 493d
000002b0: 2add 1e3e 7171 3a3d 0143 663d fe48 f33d
000002c0: 6280 073d 3ae1 88bd 4b09 b6bc 66a5 c6bc
000002d0: aaee 493c 7676 7bbd 77b2 23bd b89b e0bc
000002e0: 180e 293d 2552 cfbb d160 77bd 5f5a 83bc
000002f0: 971d 01be 1cd3 233d 8c93 813e 86ed a83d
00000300: b845 1cbd edc0 c8bd 81c1 ccbc b4d7 f13c
00000310: b724 263d af64 4c3d 2ece 5abd a585 00bc
00000320: 151f 47bd 3adb 2b3b e17e b33d 99e2 bb3c
00000330: 1c5a a3bc 46f6 0bbc 6d2c b4bd c98d 433d
00000340: 0283 003e 7ffd 9e3c 6af2 7bbc 16ab 7f3d
00000350: 2f16 46bb 0b3f bfbc 1b46 19bd b8ab 0cbd
00000360: 8c5d 83be eba1 d7be 5bb7 73be b265 82bd
00000370: d884 883e 8543 efbd 377b b7bd d865 743e
00000380: 008d 0bbd cdbe 03be 216d 81be 3283 8dbd
00000390: b13f bf3b 2e56 053d 5291 0e3c 6998 f9b9
000003a0: 331a 5b3d 403e 90bb 5807 903d 427c b13d
000003b0: d083 8f3d f46e b93b 359a 753c 9bc1 ad3a
000003c0: b013 e1bb 4036 32bb 5553 7c3c ef0c bdbd
000003d0: a5e2 b3bd 05e1 47bd 7e6d 8c3d 8cd3 1dbc
000003e0: b279 453d 1249 213d 063e 233c 7959 f53b
000003f0: 03af a7bd 671d 37be 4035 febd 4fdf 0d3c
0.013725263 0.016993197 -0.015421893 0.010743234 0.029666826 0.006405759 -0.069731854 -0.14597102
-0.07684215 0.033656806 0.1588978 0.037310757 -0.030562859 -0.12510872 -0.066174574 -0.047187295
-0.09363004 0.04461804 -0.02034894 -0.03849672 -0.0750106 0.027812917 -0.05129949 0.0452774
0.06299575 0.08118148 0.05040263 0.01811109 -0.05237388 0.041218195 -0.014218968 -0.04177221
-0.010416071 -0.0021478524 -0.074163616 -0.082408294 0.021389024 0.09146392 0.019690333 0.13722652
0.08845188 0.09539345 -0.13365021 -0.19875358 -0.17557739 0.01680587 -0.07130032 0.0005222833
0.015960775 -0.026379889 0.037266396 -0.043055817 0.052028507 0.047661904 -0.0247243 -0.09155635
-0.009354389 0.021164777 -0.051737588 0.005225014 -0.04680817 -0.050802663 -0.10127857 0.0028008767
-0.025618529 -0.01701881 -0.025003076 -0.12441669 -0.012511779 -0.042251054 0.028435534 -0.07310842
-0.063649215 -0.017213246 -0.055144586 -0.0017472986 -0.020030305 -0.0942197 -0.023967668 -0.030865293
0.07944908 0.07255583 0.008891062 -0.008434157 -0.04761814 0.05190733 -0.10153874 0.008484746
0.015418875 0.007111186 0.08794616 0.03141153 0.036833145 0.05857774 0.038758833 0.054916684
-0.0823061 -0.05397508 -0.08881474 -0.051151205 -0.06540925 -0.026209522 0.053103223 0.03549718
-0.013971391 -0.0013861813 -0.107280456 0.053654384 0.012277813 -0.03452792 -0.01842397 -0.018555965
-0.06456766 -0.0654832 0.023820367 0.10307605 -0.058642827 0.037718374 -0.13315792 0.0016139336
-0.0005379892 -0.048430305 -0.010916428 -0.06454403 0.044029932 -0.0070989095 -0.091779955 -0.07665727
-0.023068262 -0.05308231 -0.08168414 0.031074548 0.02336265 -0.008752779 -0.056666087 -0.06315238
-0.0069826827 0.0062605306 0.02539259 -0.13607354 -0.0066583487 0.031630747 0.009903361 -0.066720545
0.121064074 -0.07973328 0.052399438 -0.059353895 -0.2360333 -0.103256546 -0.05505925 -0.04025085
-0.02911745 -0.006862151 -0.20240071 -0.03347818 -0.0045084073 -0.07233574 0.028978957 -0.06117509
-0.20732231 -0.13206778 0.06682952 -0.036268435 0.02735041 0.019375298 -0.024500545 -0.0085512865
0.027424337 -0.01867304 0.09258973 0.049193837 0.15514055 0.045518342 0.056216244 0.118791565
0.03308142 -0.066835836 -0.022221228 -0.02424879 0.012324968 -0.06139227 -0.03996512 -0.027418002
0.041273206 -0.006326931 -0.060395066 -0.016034303 -0.12608944 0.03999625 0.25307882 0.08248429
-0.038152426 -0.09802423 -0.024994614 0.0295218 0.040562358 0.049900707 -0.053419285 -0.007844363
-0.048613627 0.0026223199 0.087644346 0.022935199 -0.019940428 -0.008542603 -0.08797536 0.04774264
0.12549976 0.019407986 -0.01537762 0.06241902 -0.0030225625 -0.02334549 -0.037420373 -0.03434345
-0.25657308 -0.4211572 -0.23800413 -0.06367053 0.26663852 -0.116828 -0.08959048 0.23866975
-0.034070015 -0.12865753 -0.2527857 -0.06909789 0.00583645 0.03255289 0.008701639 -0.00047606535
0.053491782 -0.004401952 0.07032651 0.086662784 0.07007563 0.0056589786 0.014990379 0.0013256551
-0.006868802 -0.002719298 0.015400727 -0.092309825 -0.087834634 -0.04879858 0.068568215 -0.009632956
0.04821176 0.039376326 0.009963518 0.0074874726 -0.08187678 -0.1788231 -0.124125004 0.008659198

tpcnns.0.bias f4 [8]
00000000: c72c 013e 1eed 0ebe a2d7 a23e cbd1 3d3f
00000010: 04a6 19be dc23 7c3d 35ad a0bd dd50 4ebe
0.12614737 -0.1395764 0.3180514 0.74148244 -0.15004736 0.061557636 -0.078455366 -0.20148034

tpcnns.1.weight f4 [8, 8, 3, 3]
00000000: 04ca 193d 4319 ff3c 2fe8 c8bd 2fe8 d03c
00000010: 522f 1ebe 1ba4 dfbc 473f 813d e427 b33c
00000020: 2ba0 dcbd 9a8a 4ebd 24de b1bd 9636 21bc
00000030: a8c2 6dbd bcbc 40bc 590c 753d d4ae 7b3d
00000040: d355 93bd 57c5 89bd 6677 b23d 7ab9 a03d
00000050: 9152 e93d 38e5 92bc 4b43 873d eeb6 97bd
00000060: 65d7 fbbc c2b1 9abc 9606 163b 2539 d83d
00000070: b17e b4bd 5220 51bc 8fbe 783e 87c2 773e
00000080: 593d 6c3e 1872 a63c 7a5b 7c3c 9fb2 8fbd
00000090: ece7 e03d 2718 d33d 3fcd 7e3c e816 dcbd
000000a0: 0533 e93d 952d e93d 6190 553d b70f e13d
000000b0: 5a8f 213d 06c8 db3d dc93 a9bd 23a1 b2bd
000000c0: 7df2 2dbd da8d 92bd 9916 e93d 54ad bc3d
000000d0: 55d6 c53d 6085 f03d e0d4 e83d 02ad a33d
000000e0: f791 7f3d e8dd 68bd 83e4 e1bd 646c bbbc
000000f0: 305b f6bd fd1c 45bd 3911 0f3d 3534 bdbd
00000100: 61d7 793d c31b 7f3d ae07 50bd 3e66 bcbd
00000110: 364e 2cbd 7a76 55bd 8b60 933d f609 d1bd
00000120: c2ee 88bd 9b9e 98bd bc62 a0bd d985 97bc
00000130: 6c40 d0bd 36bb ddbd 37d8 2e3d 0143 943b
00000140: 5351 84bd db42 e83c 2f12 cabc 0ecb bd3d
00000150: 2fc3 b7bd 6cc0 f43b e338 9c3c e5d8 fcbd
00000160: 1b01 e7bd 2647 95bd 6b9b 623d 5362 b0bd
00000170: 9e6b 173d ef06 9bbd 1083 9bbc eba9 273d
00000180: a07e e4bb 95a3 003e 2166 7bbd 1a9c bdbc
00000190: bc9c bd3c e3eb 6cbd 94a0 f33d dc9a d23d
000001a0: 0169 34be d212 51bd 267b 723d d736 f8bb
000001b0: 180c a13d 1e8f a43d 851c 87bd 5020 3d3b
000001c0: 38e7 21bd aa71 9d3c 7841 9c3d 61d3 a13d
000001d0: a10c 073d f222 a9bd 08d0 5fbd 792c 49bc
000001e0: f2c3 d93c 8e1e 15bd 07c9 c0bd cd6c bfbd
000001f0: cc6b e03b 1509 03be 76d6 af3d 5a88 ccbc
00000200: b607 c1bd 9682 e6bc 2c9e 323d 2699 adbd
00000210: 45f0 b53d cdb5 993d 01dd f2bd e0fa acbc
00000220: e382 3f3d 114e 2bbd 9089 6dbd 5462 cbbd
00000230: 4fca b0bc afd0 803d 3129 743c 61c9 173d
00000240: 5bef 783d ab98 dabc 26c0 3e3d 9bae dcbd
00000250: 5cbd 473d 4ce2 f7bd c4e4 183d a039 c13b
00000260: 3b86 9bbd 2e9c de3c 43b7 d03c 8d22 c33c
00000270: a38b aebd 0a8d 4fbd 91a2 db3c 37c8 06bd
00000280: a628 bdbd a9a5 893c b867 bdbd ba75 373d
00000290: 4fb0 dd3c cd28 f0bd 8e1a 89bd 7a61 e3bc
000002a0: 10ed 23be 424c 973c 4e93 e03c 4068 8ebd
000002b0: de3a 17be d7c5 0abc 247c 543b 438f 76bd
000002c0: 9489 c23d 167a 763c b181 e8bd c416 10bd
000002d0: b760 9e3d 529a e6bb 9658 373d 2e72 62bd
000002e0: dd15 94bd a280 e73c 7934 6bbd a4d4 9a3d
000002f0: f526 8f3d 57cb 20be c422 15bd 2be5 78bc
00000300: e2a9 ebbc 9d9a 46bd 2db4 cdbd d5a1 3b3a
00000310: 1c34 783d 95a8 18be 2f7d b93d fa06 28bd
00000320: b712 ea3d ce8f c5bc 82f9 52bd 3bc0 e53d
00000330: bd8c 7bbd 358b cb3d 613b ecbc 3968 10bd
00000340: 8dd3 a7bd 70a4 863d b6b3 1abe 19b4 c9bb
00000350: ade2 8d3d a990 b4bc cc4d 553d 356f dbbd
00000360: 6822 b53c 56d7 973c 4604 efbd f824 ab3b
00000370: 5631 5d3d a0ec a33d 980c 0cbd cdd4 223d
00000380: 1dfe 64bd b179 5cbd 4165 e83c 0dfc 0cbe
00000390: 89d6 003d 4cbd 8cbc 843c cabd 2aa3 7d3d
000003a0: 38b5 093d b028 4cbd cb38 523d ae63 85bd
000003b0: d8c3 0bbe c38b 3f3d fc50 bf3d bbd5 a6bb
000003c0: 71fa 583d b8c8 eebd 5ff0 c2bd 49ca cdbd
000003d0: bbdb 7c3d 0655 7dbd 8c6a 17be 140e c93c
000003e0: 4138 41bd 2c13 03be 40a8 c9bd 056a eebd
000003f0: 475b 523d 86eb 64bd 560a 813d 47ca 0c3d
0.037546173 0.031139975 -0.098099105 0.025501339 -0.15447739 -0.027299931 0.06310897 0.021869607
-0.10772737 -0.05042515 -0.08684948 -0.009839674 -0.058046967 -0.011763748 0.05982623 0.061446026
-0.07194104 -0.06727093 0.0871418 0.07847877 0.113927014 -0.017931566 0.06604632 -0.07407938
-0.030742357 -0.01888359 0.002289211 0.105577745 -0.08813227 -0.012764053 0.24291442 0.241953
0.23070277 0.020318076 0.015402669 -0.07016491 0.109817356 0.10307341 0.015551864 -0.107465565
0.11386684 0.11385647 0.052139644 0.109893255 0.03944335 0.10731511 -0.08280155 -0.08722141
-0.042467583 -0.07155962 0.11381263 0.09212747 0.09660021 0.11744189 0.11368728 0.07991983
0.062395062 -0.05685225 -0.11029913 -0.022878833 -0.120291114 -0.04812335 0.034928534 -0.09238473
0.060996417 0.062282335 -0.050788574 -0.09199189 -0.042066775 -0.05211494 0.071961485 -0.10206978
-0.066861644 -0.074521266 -0.07831332 -0.01849644 -0.101685375 -0.10826723 0.042686667 0.004524589
-0.06460824 0.028352192 -0.024666874 0.09267245 -0.08972775 0.0074692275 0.019070094 -0.12346057
-0.11279508 -0.07288961 0.055324 -0.08612504 0.036967866 -0.07569682 -0.018983394 0.04093353
-0.0069731027 0.12562402 -0.061376695 -0.023145724 0.023146026 -0.057842147 0.11895862 0.10283443
-0.17618181 -0.05104334 0.059199475 -0.007574897 0.07863635 0.0803511 -0.065972365 0.002885837
-0.039527148 0.019219238 0.07629675 0.079016455 0.03297103 -0.082586184 -0.054641753 -0.0122786695
0.026582692 -0.036406092 -0.09413343 -0.09346924 0.006848788 -0.12796433 0.08585827 -0.024967361
-0.09425299 -0.02813844 0.043607876 -0.08476476 0.088837184 0.07505379 -0.118585594 -0.02111572
0.046755683 -0.041822497 -0.057992518 -0.09930864 -0.021580843 0.06289803 0.014902399 0.037057284
0.060775142 -0.026684126 0.046569966 -0.10775491 0.04876457 -0.121037096 0.037327543 0.005896762
-0.07593962 0.027174082 0.025478011 0.023820186 -0.08522727 -0.050671615 0.026810916 -0.032905784
-0.09236269 0.016802626 -0.092482984 0.044790007 0.02706161 -0.11726532 -0.06694518 -0.027756441
-0.16008401 0.01846898 0.02741399 -0.06953478 -0.1476855 -0.00847002 0.0032422626 -0.06019522
0.09498897 0.015043756 -0.11352862 -0.03517796 0.07733291 -0.0070374394 0.044762217 -0.05528467
-0.072307326 0.02825958 -0.05742309 0.07560089 0.06989852 -0.15702568 -0.03641011 -0.015191357
-0.02876753 -0.048487294 -0.100441314 0.0007157599 0.06059657 -0.14908059 0.0905708 -0.04102228
0.11429351 -0.024116423 -0.05150748 0.11218306 -0.061413515 0.09938661 -0.028836908 -0.035255644
-0.08194647 0.06574333 -0.15107617 -0.0061555025 0.069280006 -0.022041636 0.052076146 -0.107145704
0.022111133 0.018535297 -0.11670737 0.005222913 0.05400213 0.08004117 -0.034191698 0.039753724
-0.055906404 -0.05382699 0.028368594 -0.13768025 0.031454597 -0.017180108 -0.09874824 0.061923184
0.03362009 -0.04984349 0.051323693 -0.06513153 -0.13648927 0.046764147 0.093416184 -0.0050913966
0.052973215 -0.11659378 -0.095185034 -0.100483485 0.06173299 -0.061848663 -0.14786738 0.024542846
-0.04717279 -0.12800282 -0.09846544 -0.11641315 0.05135658 -0.055888675 0.063007995 0.034372594

tpcnns.1.bias f4 [8]
00000000: 90da 11bf 681e 37bd 8cd4 8abe 6fb8 ecbd
00000010: a0d5 2ebe 9193 e5bd f8c7 a2bc a2ec e83d
-0.56974125 -0.044706732 -0.27115285 -0.115586154 -0.17073679 -0.11209787 -0.019870743 0.11373259

tpcnns.2.weight f4 [8, 8, 3, 3]
00000000: 2d78 f0bb 29a8 65bd 1c00 14be 320a 0abe
00000010: 4158 efbd 3ca1 e5bd a158 7f3d 5336 2c3c
00000020: 3a92 083d e83b cdbd 0903 ea3c 593b fd3b
00000030: 4b0a ef3b 41cb 9d3c d65a 723d 7115 563d
00000040: 783a e4bd d6ef abbd 213d 753d c903 b73d
00000050: 3011 b13b 6940 94bc 5e49 3b3d fe68 b7bd
00000060: 98b1 653d de12 d83d 0c10 17bd 8cd7 98bd
00000070: e4ee b1bb 959e 33bd 8380 463c dc58 6dbe
00000080: c078 f3bd be5c 073e d630 3cbd 89de f83c
00000090: 4b10 813d d416 3c3d 3055 0e3e 3fd7 f93c
000000a0: f992 79bd 3795 9fbc 9efa af3d 0fb1 09bd
000000b0: 224e 913d 7ba5 51bd 48ec 5c3d 8b57 5fbd
000000c0: 5429 e23b df3b 28ba 730b 993d be10 b3bd
000000d0: e12c 2fbe a380 e9bd 66b4 023d 3482 7bbd
000000e0: 7c9a 9b3d 32a4 a83c d55c 1dbe 6616 b0bd
000000f0: 165c 123d 7735 efbd e075 843d 5296 9e39
00000100: 71c6 acbd 8907 91bd b977 96bc 4332 113d
00000110: 689e 353d bb5b 093d 65c7 93bd 9430 9bbc
00000120: b9f0 dabd 7e1b f4bc 6871 303d a281 ddbb
00000130: eb55 a53d 433c 873d 5c85 5f3c 9afb 9bbd
00000140: a88d a6bd 80e6 8a3d e98c e4bd 7c35 1cbd
00000150: 86b1 a03d d9df a13d 0814 22bd c5d3 0dbc
00000160: 6034 a5bc 1438 c73d 73dd 26bd c26c 4f3d
00000170: 35b1 283d 0a1e 89bc d9f4 a03c 1151 9c3d
00000180: eedb d4bd 6593 0cbe 1d1f 2e3d 6971 a43d
00000190: 62df 863d d2a4 da3d dec9 87bc cacd 93bb
000001a0: 65e3 4dbd 4495 583b a5c3 09bd c057 03be
000001b0: 8aa3 cb38 cf90 e03b 90d6 cdbd 9310 903d
000001c0: 0d26 c4bd 9e18 ae3d 3f48 a8bd c16b 9a3d
000001d0: a250 cd3d 69fc f1bc aed2 1c3d 7c82 c63c
000001e0: d5e5 133c 24b3 01bd 5f4f 9abc 96cc 603d
000001f0: 8731 09be 0bd7 72bd 3fd6 8cbd 61be 873d
00000200: c374 d9bd 3126 b9bc fdbd d73c 9ab0 9f3b
00000210: 7437 843c 5380 84bd c126 8ebd 60d4 02bc
00000220: 70a9 5ebd 5f10 903b e6dd aa3d ae31 403d
00000230: 0b7f dcbd 9d3f e1bc 9ef8 143d f1e8 8abc
00000240: ff6b 2f3d 8228 4f3d 4f7a aa3d 8685 92bc
00000250: 5a91 d63c a30e 553d 29c1 c7bd 3713 0dbe
00000260: 8de8 0abe 7814 823d 2bb5 203d 209e a9bd
00000270: 0e66 c53c 162d 653d f747 b73b ddba 67bd
00000280: dcbf b23c b205 a6bd 0b85 0bbe c21f 023d
00000290: 5e02 dabd 6087 3bbe 7319 94be 0336 b73c
000002a0: b4ba 4bbd 23d8 a9bd cc86 f2bd a3d2 433c
000002b0: 78e0 f83c b77a 76bc 0c70 c63d 0cdf 413d
000002c0: b1fe 54bd c059 5ebd 4815 323d fb94 203c
000002d0: 5a57 7f3d e2e7 033d 054f e53d d24c 30bd
000002e0: c506 693d 84e6 ba3d a5b4 b2bd 299d 833d
000002f0: 41f7 b73d 11d9 aabc 3819 e5bd 91fd 9fbd
00000300: 82f0 1fbd cf1d cfbd e22c dabd 3a99 12be
00000310: 588c a93c ad56 19be 07e3 56bd 39b2 b0bb
00000320: c161 e1bd 6ab0 64bd 76fd 10be cf72 04be
00000330: e3dd f2bd d4f6 24be 470d 2dbd 70b2 93bd
00000340: 1783 00be d053 3c3d a9c8 02be 2c3a 62bd
00000350: b9ba ea3c 2510 dc3b 185a c53c 712f 923d
00000360: 74e5 c73a a0d9 15bb 3850 433d ecb6 883c
00000370: f038 fcbd 7455 cdbd 3e42 60bc 87f2 11bc
00000380: 05b2 a33b eb6a 833d 72a2 25bd 200d d9bd
00000390: 985b a0bd a7bd cfbd e22c abbd b76a 813d
000003a0: 7b6e 383c 3b5d 1a3d 24c9 80bd 899d 3c3d
000003b0: b873 d9bd 3bfc 563c 52a2 323d 059a 8abc
000003c0: f180 18be 161b 06bd a911 293d 6677 f8bc
000003d0: 64a4 203d 1957 3dbc 9d16 66be ca4a 10be
000003e0: a0ac 06be 4b27 6d3d e503 813d 2167 053d
000003f0: be9c e7bd 276f 903b 4bfe 0e3c ed63 1e3c
-0.007338545 -0.056068573 -0.14453167 -0.13480452 -0.11686755 -0.11212394 0.062340382 0.010510999
0.033342578 -0.10021192 0.0285659 0.007728022 0.007294928 0.019261958 0.05916866 0.052266542
-0.111439645 -0.083953544 0.05987275 0.08936269 0.0054036602 -0.01809712 0.045724265 -0.089555725
0.05607757 0.10550474 -0.036880538 -0.07462987 -0.0054300893 -0.043852407 0.0121156005 -0.23178428
-0.118882656 0.13218972 -0.04594501 0.03037955 0.06301936 0.045920208 0.13899684 0.030498145
-0.06093118 -0.01948033 0.08592723 -0.03361612 0.07094981 -0.051183205 0.053936273 -0.054526847
0.0069018994 -0.0006417613 0.07472887 -0.08743428 -0.17106964 -0.11401489 0.031910323 -0.06140347
0.07597825 0.020586107 -0.15367444 -0.08598022 0.03573235 -0.116801195 0.06467795 0.00030248106
-0.08436287 -0.07081515 -0.018367635 0.035448324 0.04434052 0.033534747 -0.07215766 -0.018944062
-0.106904455 -0.029798266 0.043076903 -0.006759838 0.08073028 0.06603291 0.013642635 -0.076163486
-0.081324875 0.06782246 -0.11159689 -0.038136944 0.0784636 0.07904024 -0.039569885 -0.008656447
-0.020166576 0.09727493 -0.040738534 0.05064083 0.041184623 -0.016737957 0.019648002 0.0763265
-0.10393511 -0.13728102 0.04251014 0.08029444 0.06585576 0.10675968 -0.01657575 -0.004510616
-0.05026569 0.0033047954 -0.033633847 -0.12826443 9.710256e-05 0.0068532 -0.1005069 0.07034411
-0.0957757 0.08500789 -0.08216905 0.07540084 0.10025145 -0.029539304 0.038286857 0.024232142
0.009026964 -0.031664982 -0.018836675 0.05488261 -0.133978 -0.059287112 -0.06876802 0.06628109
-0.10617974 -0.022601219 0.02633571 0.0048733475 0.016139723 -0.064697884 -0.069409855 -0.007985204
-0.054360807 0.004396483 0.08343105 0.04692238 -0.10766419 -0.027496153 0.036369912 -0.016956778
0.042827602 0.05057574 0.0832411 -0.017885935 0.026192356 0.05201591 -0.09753639 -0.13776861
-0.13565274 0.0635156 0.039235275 -0.08282113 0.024096515 0.0559512 0.0055932957 -0.05657469
0.021820001 -0.08106555 -0.1362497 0.031768568 -0.10644983 -0.1831336 -0.28925666 0.022364622
-0.0497386 -0.08293178 -0.11842117 0.011952075 0.030380473 -0.015043906 0.0968934 0.047331855
-0.052000705 -0.05428481 0.043477327 0.009801145 0.062339164 0.032203563 0.111967124 -0.04304201
0.05689122 0.091259986 -0.087258615 0.0642646 0.08982707 -0.020855458 -0.11186451 -0.07812036
-0.039047725 -0.101131074 -0.10653092 -0.14316264 0.020696804 -0.1497447 -0.052462604 -0.0053923395
-0.11004973 -0.055832304 -0.14159188 -0.12934421 -0.11858728 -0.16109782 -0.04224899 -0.072117686
-0.12550007 0.045978367 -0.12771858 -0.05523126 0.02865349 0.0067157918 0.024090812 0.07137955
0.0015250877 -0.002286531 0.047683924 0.016688786 -0.123155475 -0.100260645 -0.013687668 -0.008907921
0.004995587 0.06416877 -0.040438123 -0.105982065 -0.0782997 -0.10143595 -0.0835817 0.06319182
0.011256809 0.037686568 -0.062883645 0.046048675 -0.10617775 0.01312166 0.043611832 -0.016919145
-0.14892937 -0.032740675 0.041276608 -0.030330371 0.039219275 -0.01155641 -0.22469564 -0.1409103
-0.13151789 0.0578988 0.06299571 0.032569055 -0.11309193 0.0044077816 0.00872762 0.009667379

tpcnns.2.bias f4 [8]
00000000: 5efd a3bd e2bc c1bd 3068 7ebe 8a9d 2bbe
00000010: 306d 043e 7c10 54be 281e a6bd 7e8a 7fbb
-0.0800731 -0.09459855 -0.24844432 -0.16759315 0.12932277 -0.20709413 -0.081112206 -0.003899246

tpcnns.3.weight f4 [8, 8, 3, 3]
00000000: fe2c 31be 4947 96bd bd5d c4bc f6c2 a0bd
00000010: 10b4 efbd bf48 d1bd 02d3 3dbe 04d1 98bc
00000020: 92ab ecbd a12a 303e 2b9a e73c db02 9a3d
00000030: aaaa 293e 6716 67bb c320 b93c 4327 343d
00000040: 6ccd 093e d0f8 7bbc fd23 8c3c d78e f4bd
00000050: 9a15 553d 0d00 78bd 3f0b 683d bb27 2cbd
00000060: b0a0 9b3b 1c0a 1fbd 0446 afbd 88c5 a5bc
00000070: 4e60 08be 2cfa 02bc 57f1 9abd d454 60be
00000080: 43d7 ae3c 4bb5 c9bb bcd1 8bbb 33b1 2e3e
00000090: a814 1bbd 6dbc a8bd 7abf 00be fe1f 3fbe
000000a0: dc5b 77bd a432 17be e0bf 0dbe 2fcf 013d
000000b0: 0eab dabd ba7d 7c3c 6340 193d a06e e93d
000000c0: 9daa 46bc 8f56 07bd 76ff 8bbb 6ad6 00bc
000000d0: 1e76 11be 1ff7 5e3d 9a64 78bd 4947 e1bc
000000e0: 1b90 82bd 0994 16be 946c 9d3c 5797 63bd
000000f0: c71c c83c 4bbc 703d 2524 1bbe 0592 c4bd
00000100: 177f 6cbd ded2 273d 81a7 ccbd 0a32 97bd
00000110: 847a 25be a03f 91bd f9ff 36be 6ac5 16be
00000120: 7794 92ba e56d e5bd 8b8c 13be 4147 8d3c
00000130: 29ca 84bc 1e4f 7abd 39f6 b63d a61d 753d
00000140: 8b01 18bd ecd4 eabd c97a 92bd 5925 d6bd
00000150: 310e efbc dd24 d93c 656b 8ebd 1b86 a43c
00000160: 0a26 023c 7eaf aebd 9e83 983d 82c5 683d
00000170: 2ead 3cbd 78b1 013d 4eca 2abd 461d 82bc
00000180: 233b 6abd 9c78 77bd 7084 e73d cc73 dd3c
00000190: 50b6 76bd 1cd3 c03d 189a b13c 1dd0 c7bd
000001a0: 0479 fcbd 7dd9 dbbd a63a 37bd 5866 a4bd
000001b0: 2000 d7bd c9fd d9bb 25b7 e03c a368 b73d
000001c0: da4a 883d 0a3f bcbb e9b2 57bc 4fde 8bbd
000001d0: 3383 163d cd30 8fbd 976e a13d 7d40 ef3c
000001e0: 2ba2 1fbd c4bc 893c 5861 05be 795e 00be
000001f0: 95c0 1ebd 2d60 1b3d 9f4a 623d 4ad1 383d
00000200: e623 85bd ece1 523d b381 d8bd ed32 fc3c
00000210: c37c dfbd 8498 dbbd 485e acbd 4a1c 073d
00000220: dd44 573b 5672 a83d 42d1 ad3b 3f05 4abd
00000230: d450 943d deb4 083b 215c 963d 2f7a a93d
00000240: bbaa c03b 34ff 1a3d 1b8a 25bd 57e5 0abe
00000250: aff9 c2bd 43cd 123d 45b0 8abc 73fb 0fbe
00000260: 3af6 80bd ecd8 febd 3988 923d 097b dd3d
00000270: d7ec 033c b0c6 9a3d bdc4 19bd b6c0 f03c
00000280: b79c 3fbb 97f8 9abd 7dbf 05be d5e8 f0bd
00000290: 9f92 ae3c 2b1b 05be 447d eebd 5853 46bd
000002a0: f7e5 0c3d 35cd 14be 729a a8bd 277d 07be
000002b0: d085 073c 80bf 27bb 3a1f ab3c b722 03be
000002c0: 4daf 52bc 1ee1 993d 42c2 a23d 612e 02be
000002d0: 7021 0f3c 11c6 d7bd be70 c13d eb56 4dbd
000002e0: 3057 81bd f2c0 033d 507d 2e3d 830a 95ba
000002f0: 21fc 30bc aef8 52bd 0ff9 bbbc c8b4 07be
00000300: f0f9 d0bd d4f8 07bd 745d 32bd 427f 3f3d
00000310: 28ec 1fbe 945a 20be 2f9a 99bd 7c21 5e3d
00000320: fa31 82bd 25b6 21be 85b1 8a3c c58f 8ebc
00000330: 9552 29be fd8b 813c 4531 3fbe deb6 5bbd
00000340: 1bf3 eebd 3502 a3bd 407e b6bd 641d 703c
00000350: 9dd2 89bd 383a 6ebc 7d84 7ebc 8773 43be
00000360: 91a9 0cbe d652 a43d 4726 f33c f16f 35bd
00000370: b146 03be 5cbe 1ebd a705 0ebd 48bc d8bd
00000380: 2afb 833d 9d98 d03c 509a 74bc b7cb a8bd
00000390: 7091 fbbc c8a8 dd3d a330 7e3c ec1a debd
000003a0: db35 aebc 4404 963d da96 d43c 370d 2a3d
000003b0: bba3 13bc 766c 43bd 3585 8fbd baad 773c
000003c0: 18e5 99bd 38d5 8fbd 34a9 8dbd f092 883d
000003d0: d692 f0bd 24af f3bc 5773 6ebd 6fdc e5bc
000003e0: 4476 2ebe 0af9 98bd 990f 78bc b0d5 41bd
000003f0: 90cb 893c 4b2b f03c 1d59 8fbd 45a3 8cbd
-0.1730232 -0.07337815 -0.02397048 -0.07849686 -0.11704266 -0.10218953 -0.18537524 -0.018654354
-0.11556162 0.17203762 0.028271755 0.07520076 0.1656901 -0.0035261156 0.02259863 0.043982755
0.13457268 -0.015379146 0.017107004 -0.11941307 0.052022554 -0.060546923 0.05665135 -0.042030077
0.00474938 -0.038828 -0.08558276 -0.020235792 -0.13317987 -0.007994216 -0.07565563 -0.2190736
0.02134288 -0.006155645 -0.0042669456 0.17059784 -0.037861496 -0.08239064 -0.12573043 -0.18664548
-0.06039034 -0.14765412 -0.13842726 0.031691726 -0.10677157 0.015410835 0.03741492 0.11398053
-0.012125638 -0.033041533 -0.0042723967 -0.00786362 -0.14205214 0.05443489 -0.060642816 -0.027499812
-0.06375142 -0.14704908 0.019216813 -0.05556425 0.024427785 0.05877332 -0.15150507 -0.095981635
-0.05773839 0.040972583 -0.09992886 -0.07382591 -0.16160017 -0.07092214 -0.17871083 -0.14723745
-0.0011183162 -0.11202601 -0.14409082 0.01724589 -0.016209679 -0.06111061 0.08933682 0.059842728
-0.037110846 -0.11466393 -0.07152326 -0.10456342 -0.029181572 0.026506836 -0.06954078 0.020083478
0.0079436395 -0.08529566 0.07446979 0.056828983 -0.046063595 0.031663388 -0.04169684 -0.0158831
-0.057185303 -0.060417756 0.11304557 0.027032755 -0.06023246 0.09415266 0.021679923 -0.09756491
-0.123277694 -0.10734842 -0.044733666 -0.08027333 -0.10498071 -0.006652568 0.02743108 0.08955505
0.06654902 -0.0057448195 -0.013165214 -0.068295114 0.036746215 -0.0699173 0.078824215 0.029205555
-0.038973015 0.016813643 -0.13025415 -0.12536038 -0.03875788 0.037933517 0.055246945 0.04512147
-0.06500988 0.051484987 -0.10571613 0.030786002 -0.10912468 -0.107224494 -0.0841642 0.032985963
0.0032847442 0.08224933 0.0053044865 -0.04932141 0.07241979 0.0020859758 0.07341791 0.08275258
0.0058797277 0.037841037 -0.04041491 -0.13564049 -0.095202796 0.035840284 -0.016929755 -0.14060764
-0.06296964 -0.12443718 0.07154889 0.10814483 0.0080520725 0.07557428 -0.03754114 0.029388767
-0.0029237696 -0.07566946 -0.13061328 -0.11763159 0.021310149 -0.12998645 -0.11644986 -0.048419327
0.034399 -0.14531405 -0.08232583 -0.13231336 0.0082716495 -0.002559632 0.020888913 -0.12806211
-0.012859178 0.07513641 0.07947208 -0.12713005 0.008735999 -0.10535825 0.09445332 -0.05013172
-0.06315458 0.03216643 0.042599976 -0.0011370931 -0.0108023 -0.05150669 -0.022945909 -0.13252556
-0.10203922 -0.033196285 -0.043546155 0.046752222 -0.1561743 -0.15659553 -0.07500111 0.054231152
-0.063571885 -0.15792139 0.016930351 -0.017402539 -0.16535409 0.015813822 -0.18671139 -0.053641193
-0.116674624 -0.07959405 -0.08910799 0.014655445 -0.067296244 -0.014540248 -0.015534517 -0.19087039
-0.1373656 0.08023612 0.029681338 -0.04429621 -0.12819935 -0.03875576 -0.03467336 -0.10582787
0.0644439 0.025463397 -0.014929369 -0.082419805 -0.030708998 0.10823208 0.015514526 -0.10844979
-0.021265915 0.07325032 0.025950838 0.04151651 -0.009011204 -0.04771086 -0.07007829 0.015117103
-0.07514399 -0.0702309 -0.069170386 0.06668651 -0.11746757 -0.0297466 -0.058215465 -0.028059212
-0.17037302 -0.074693754 -0.0151404375 -0.04732293 0.016820699 0.029317519 -0.06999419 -0.06867079

tpcnns.3.bias f4 [8]
00000000: 7726 8abc bdd3 cabd 59f8 73bd a340 3cbe
00000010: 4af4 afbd 0743 2d3c ede8 a3bc 672e 943d
-0.016864045 -0.09903667 -0.059563015 -0.18384032 -0.08591516 0.010575063 -0.020008529 0.07235413

tpcnns.4.weight f4 [8, 8, 3, 3]
00000000: aadf 3bbd 70bf ff3b fe8d 323d 300a e33b
00000010: b029 8ebd 9126 8b3d a0af d3bd 5cc2 813c
00000020: 5130 e4bd aa35 393d 80e7 9b3a bd35 d63d
00000030: fe66 86bd 4aa9 81bd 1873 bbbd ed96 c83d
00000040: c727 a8bd 60de 1ebb 799c d33d 77db ab3d
00000050: e36b ca3d 1bb4 cabd 0b09 b73d 5438 d8bd
00000060: fd23 973d 1dac e13d 0a3d 753d 443b b93c
00000070: 1027 8abd 284d e5bd 60e6 9cbd da70 2bbd
00000080: 40ae 03bc f875 cabd f7fe cabd e8da 463c
00000090: 0a24 6b3d 3b13 983d ac90 c5bc 750d b8bd
000000a0: 0c12 84bc 9db7 a13d 1a7a 92bd e2ee 723d
000000b0: 1df5 8d3d c035 9b3b e0bb 92bc 5cdd 8abc
000000c0: cb7c a53d 6cd5 9d3c 6981 c73d 014d 74bd
000000d0: 06cb 6f3d 3f6e e83d 40be c3ba aee4 35bd
000000e0: f10c 803d d023 f03b d74b 873d 6600 aebd
000000f0: aa68 243d 3987 a53d 8666 753d 6999 bbbd
00000100: 72d1 5e3d 19de bf3d e078 2fbb 70ba 99bc
00000110: 4ae7 44bd 805d 593b 1ba8 873d 3342 b03d
00000120: d87b bcbc b54b d53d 1528 9fbd 5e2b 5dbd
00000130: ceca c5bd 9c64 95bc 00fb 983b a036 33bc
00000140: f637 4b3d 4510 ccbd 836f d43d f278 153d
00000150: 9840 583c 3667 12bd 2a51 d2bd f372 db3d
00000160: c857 9dbc 404d f7ba 7ed9 163d b020 f0bc
00000170: bc0a 813c d96f 923d adee 6bbd 74c6 f33c
00000180: 4c44 bd3c 1d37 babd ce02 0d3d 6962 f03d
00000190: 7a80 4d3d 2a10 0dbd f9e0 db3d de65 aebd
000001a0: c0b8 2cbb 24dd 47bd 0aba 6b3d e049 debd
000001b0: 2b9d de3d 2d17 cf3d 947c 40bd 7283 4d3d
000001c0: 51dc a33d 20f7 cdbc dc01 97bd b3e6 a83d
000001d0: 0038 d7bc 9c20 d83c 3734 e8bd b47e 83bc
000001e0: 2081 3fbb 4789 9d3d 060a 423d c84d 3abd
000001f0: 0e75 053d 7454 e8bd 46b0 283d 60de eebd
00000200: d140 8c3d 297c 803d 3c5d f33c be9c f0bd
00000210: a6e5 623d a8bf 7e3c 84fa 17bd 0e55 153d
00000220: 0030 03bb 5647 e1bd 8048 e8bc 6d00 cc3d
00000230: f82c aabc b8f3 ffbc b402 f53c 60ca 32bc
00000240: 2bc8 ac3d b72a c83d c2a0 013d 22b8 92bd
00000250: f4ad 8d3c 954e e03d c480 853c 7f4b e63d
00000260: 0892 96bd b961 8f3d 603c 2abb b850 92bc
00000270: ca9f 683d 7630 433d 5471 abbc 30af fcbb
00000280: 9da9 903d 740e 97bd 58a1 15bd a9ca 9e3d
00000290: e851 3abd cad1 703d 7fb9 933d 46f2 513d
000002a0: f3b9 71bd abc8 8e3d 80e1 1ebc 3747 993d
000002b0: 3890 dbbd 1420 bdbd 68ce 0e3c 7434 babc
000002c0: 9046 b7bb 56c9 243d f284 4dbd dec1 683d
000002d0: e0f2 8bbd 6326 d43d 9ad5 1d3d 554b a8bd
000002e0: 5f75 d73d 8100 eebd 305f a6bb ced4 283d
000002f0: 0634 aabd 80f8 f4bb 0d1c 863d e9d2 9c3d
00000300: b600 b9bd 40ac 10bc 19f9 babd b0f2 e3bc
00000310: 934a e4bd db38 8c3d 0ed6 0c3d 53b4 65bd
00000320: 63bf ae3d 703d b4bb 49b0 c0bd f2f4 523d
00000330: 221f 7b3d 32dd 523d db28 983d 7a59 663d
00000340: 6983 d43d 728a 3c3d 2e0f 733d 53ab db3d
00000350: 62f1 e7bd d5cf b03d bf7f cf3d da9e 20bd
00000360: ed6b c1bd dc56 81bd 910a 9f3d 44df f33c
00000370: 5cf6 1cbd 8067 b93b d518 933d c454 b93c
00000380: e897 2cbd 0b49 9e3d 88fd 153c c514 adbd
00000390: 94e2 a53c bb06 debd 16ea 7c3d 23af 903d
000003a0: d0e8 04bd e072 6cbb 8916 6bbd 77c9 e83d
000003b0: c65c b3bd af5d c3bd 20d0 76bc dec1 8cbd
000003c0: 92ad 92bd e078 efbb e0c5 0e3b 1f12 e6bd
000003d0: 62df e8bd 9e50 10bd 007d 683b 5d6b dcbd
000003e0: 8e84 42bd 0e7a 62bd 8292 793d 39c5 e03d
000003f0: 1690 503d b40a aebc bc31 ab3c f6fd aabd
-0.0458676 0.0078048036 0.043592446 0.0069287047 -0.06941545 0.06794465 -0.10336232 0.015839748
-0.11142028 0.045217194 0.0011894554 0.104594685 -0.06562613 -0.063311175 -0.09152812 0.09794412
-0.08210712 -0.0024241433 0.10332579 0.08391469 0.09883859 -0.09897634 0.08937272 -0.10557619
0.07379911 0.11019156 0.059872665 0.022611268 -0.06745732 -0.11196357 -0.07661128 -0.04185567
-0.00803715 -0.09885782 -0.09911912 0.012137152 0.057407416 0.07425543 -0.024116836 -0.08986942
-0.016121887 0.078963496 -0.07152195 0.059309848 0.06931517 0.004736632 -0.017911851 -0.016951256
0.08080443 0.019266807 0.0974148 -0.05964375 0.058543228 0.11349153 -0.0014934018 -0.04440754
0.062524684 0.007328488 0.06606262 -0.0849617 0.040138878 0.08082432 0.059912227 -0.0916012
0.05439896 0.09368534 -0.0026774928 -0.018765658 -0.048072137 0.0033167303 0.066238604 0.086063765
-0.023008272 0.104148306 -0.07771317 -0.053996436 -0.096578225 -0.01823645 0.0046685934 -0.010938317
0.049613915 -0.09964041 0.10372832 0.036492296 0.013198994 -0.03574296 -0.10269387 0.10715284
-0.019206896 -0.0018867627 0.03682851 -0.029312462 0.015752189 0.071502395 -0.057600666 0.029757716
0.023103856 -0.09092543 0.034426503 0.1173752 0.050171353 -0.034439243 0.107362695 -0.085155234
-0.0026355237 -0.04879488 0.057550468 -0.10853934 0.10869821 0.10111842 -0.046993807 0.050174184
0.080010064 -0.025142252 -0.073734015 0.082471274 -0.02627182 0.026382737 -0.11338084 -0.016051628
-0.0029221252 0.07692199 0.04737284 -0.045484334 0.032582335 -0.11344233 0.041183732 -0.116635084
0.068483 0.06273682 0.029707544 -0.11748646 0.05539479 0.015548624 -0.037104145 0.036458068
-0.0020017624 -0.109999344 -0.028354883 0.09961019 -0.020773396 -0.031244144 0.029908516 -0.010912508
0.084366165 0.09773772 0.03164745 -0.07164027 0.017294861 0.10952488 0.016296752 0.112448685
-0.07352072 0.07001061 -0.0025975928 -0.017860755 0.05679301 0.047653638 -0.020928062 -0.0077113137
0.07063601 -0.073758036 -0.036530823 0.07753498 -0.045488268 0.05879382 0.07213115 0.05125644
-0.059015226 0.06971868 -0.009697318 0.07484286 -0.10720867 -0.09234634 0.008716203 -0.02273009
-0.0055931285 0.04023107 -0.050175615 0.05682551 -0.06833434 0.10358884 0.038533784 -0.082174934
0.10520434 -0.1162119 -0.005077265 0.04121857 -0.08310704 -0.0074759126 0.06548319 0.076574154
-0.09033339 -0.00883013 -0.09129543 -0.027825683 -0.111470364 0.06846782 0.034383826 -0.056080174
0.08532598 -0.005500488 -0.09408624 0.05150313 0.061308987 0.05148048 0.074296676 0.056237675
0.10376627 0.04603047 0.05934065 0.10726037 -0.11325337 0.08633391 0.101317875 -0.039213993
-0.09444413 -0.06315395 0.07765687 0.029769547 -0.038320884 0.00565809 0.07182471 0.022623427
-0.042137057 0.077287756 0.009154685 -0.08451227 0.020249642 -0.108411275 0.06174668 0.07064655
-0.03244859 -0.0036079213 -0.057394538 0.11366551 -0.087579295 -0.09539353 -0.015064269 -0.06872915
-0.07162012 -0.0073081106 0.0021785423 -0.11233925 -0.11370732 -0.035233133 0.0035474896 -0.107626654
-0.047489695 -0.05529218 0.060930736 0.10975117 0.05091866 -0.021245338 0.020897739 -0.083492205

tpcnns.4.bias f4 [8]
00000000: 1711 843d dee2 cbbd 8ef5 6d3d 1947 d3bd
00000010: 115f cc3d f6d9 2d3d 1510 923d 8897 07bd
0.06448572 -0.09955381 0.058095507 -0.10316295 0.0997907 0.042444192 0.07131974 -0.033103496

tpcnn_ouput.weight f4 [8, 8, 3, 3]
00000000: acd1 94bc f422 76bc 7f0b 72bc 206d 643a
00000010: 0de3 aa3d 04f8 f9bb 9d4a 0abb bbf1 383d
00000020: 84e5 2d3c 87c0 e73c 3434 06bd 10b4 45ba
00000030: d5c0 c43c e0b6 99bd 877b a1bb 0f77 51bc
00000040: 8820 2f3c 1cf0 4b3d 6ecc 953b 2786 2bbd
00000050: 5a7e 71bb 7444 8bbb f810 8dbd 8db1 6a3c
00000060: ce90 35bb 4f8d 7fbd 057d bc3c 97ce cfba
00000070: 0888 143d 0a34 43bc 2c6f dfbc 5a84 5a3d
00000080: b708 55bd c3df d9bc 3920 d83c 5d1a 9bbc
00000090: 814c b5bc 8aba ba3d e3eb cbbc 0826 53bd
000000a0: e7fe 3b3c d27c b1bb 2b8a cebc 4476 8f3d
000000b0: 7650 9d3c 6ced 08bc be55 5b3c eac6 2b3d
000000c0: 8aae 0abc 8932 6f3b 1f8a b33c 47e4 c4bc
000000d0: 8626 303c e9ff 4d3d 7228 153d de0b b0bd
000000e0: 6b3f dfbb ed44 333d 2111 61bd 4926 133d
000000f0: dbd8 223d 9af4 38bd cd27 f93c 1159 113d
00000100: 9da2 a93d 9dce c1bc cc32 d53b d6c5 d4bc
00000110: ce84 a2bc 2d47 a43c 1d7a 6abd 5f25 a5bb
00000120: 63ee a0bc 98fc 0abd a39e cdbc aa31 6e3b
00000130: 7b0d b43d ea4c 2ebc 2ea2 9b3b a294 7a3d
00000140: ca2b 2c3c abfc 1d3d a91c 02bd 0e0e d43a
00000150: 307c a33c b9d8 8bbd f230 43bc bdfc 34bc
00000160: 2bf6 843b bb09 493d 8ac7 2f3a ee24 2bbd
00000170: d67b 00bc 9327 83bb a46a 8fbd f1bf 7e3c
00000180: ea6b 0dbb c895 8dbd e484 de3c 4d65 ce3b
00000190: f0c1 153d b6a4 b0bb cfdf c1bc f3f6 753d
000001a0: 52c7 4dbd c60c b7bc b8fb 2f3d 2395 87bc
000001b0: 2827 c1bc 58a1 b43d 7865 c0bc 22f5 49bd
000001c0: 48f4 4a3c 2770 cc3a c0f3 d3bc ee7d 7a3d
000001d0: 9e27 bd3c a165 c1bb e78b 763c eee7 323d
000001e0: 8119 94bb effb 823b 5568 bf3c 7778 b2bc
000001f0: b7b3 853c 2b4d 453d 4ccb 213d d945 a1bd
00000200: 2ee1 5bbb 8ae7 483d bee2 5fbd c657 2e3d
00000210: 16e0 153d 0c98 42bd 272d 043d 4c84 1c3d
00000220: e575 a03d 1d66 b5bc 43f1 ed3a edf4 86bc
00000230: a81b eabc 9293 d73c d463 5cbd 2444 6b3a
00000240: 84b7 a9bc 590d 89bc 6bea a7bc c3c6 14b9
00000250: 5e95 b13d 82f1 22bc 3c31 17ba 3a58 483d
00000260: 57ea 2e3c 124f 043d 793a 17bd e6ef 013c
00000270: 2a32 823c 27e3 8fbd 5fc4 f53a 37c9 89bc
00000280: 6545 753c b970 2c3d efec 6e3b 99fc 19bd
00000290: 287f 15bc 5f26 12bc 1d5d 95bd e416 313c
000002a0: 7bf0 5bbb 996e 95bd ca7f b63c f2b3 743b
000002b0: 7d31 f73c 8ac4 52bc 7459 04bd 7afc 653d
000002c0: 50f7 69bd 0e4d bdbc 45df 383d b404 88bc
000002d0: aab9 85bc 8e1b c33d e498 acbc 51d5 32bd
000002e0: 6c88 733b 2ba2 0bbc d9f6 eabc 8eb6 8e3d
000002f0: 5c9e 903c 482b 93bb 3337 963c 3c82 2c3d
00000300: 0e7a 17bb d9ef 8f3a ff6b da3c d3b5 bebc
00000310: 78fa ab3c 061a 443d d2b6 033d c437 a7bd
00000320: 0273 05bc 0693 283d d442 86bd e1bc 183d
00000330: 3937 163d eb93 2dbd 2b8e 003d 9a45 173d
00000340: 3b75 a93d 7f66 92bc a130 2cbb 4618 abbb
00000350: 16cb e6bc 11c8 ae3c f6fb 86bd 5a99 82bc
00000360: 858e 56be 42a6 43be c9d6 6fbe d88b 96be
00000370: 3b17 22bf 839a cdbd 8d0e 8cbd 7d21 93be
00000380: d4ae 99bd da74 323e 5e41 233e 16e4 373e
00000390: 5c22 983d fe87 bc3d 230d 09be 5bac bc3c
000003a0: 06c7 eabd ffb4 293d 77f0 7e3d 4c4d 89bd
000003b0: 54ed fa3d 2e9f 6fbe 203b aebe 3016 99be
000003c0: 5f27 04be 7d9d a1bc 9798 23bd da3f a0be
000003d0: 8106 99be 4270 a9be ab61 f73e 83c3 b13f
000003e0: fd43 033f 2be1 1b3e 8b0a e63d 3b0d 293e
000003f0: 905f 7ebe 558e b2be 993f b0be a221 15be
-0.018166386 -0.015022982 -0.014773249 0.00087137707 0.08344088 -0.0076284427 -0.0021101602 0.045152407
0.010613803 0.028290046 -0.03276463 -0.0007541785 0.02401773 -0.07505584 -0.0049280557 -0.012784733
0.010688908 0.049789533 0.004571489 -0.041875985 -0.0036848993 -0.0042501036 -0.06888002 0.014324558
-0.0027704719 -0.06239062 0.023008833 -0.0015854415 0.036262542 -0.011914263 -0.02727469 0.053348877
-0.052010264 -0.026595956 0.026382552 -0.01893347 -0.022131206 0.09117611 -0.024892753 -0.05154994
0.011474348 -0.005416491 -0.025212368 0.07004979 0.019203406 -0.008357387 0.013387142 0.041937746
-0.008464465 0.0036498627 0.021916447 -0.024034632 0.010751372 0.050292883 0.036415525 -0.085960135
-0.00681298 0.043766905 -0.054947976 0.035925183 0.03975759 -0.045155145 0.030414486 0.03548533
0.08282969 -0.023658091 0.0065062996 -0.025973242 -0.019838717 0.02005347 -0.057245363 -0.0050398554
-0.019644922 -0.0339323 -0.025100058 0.003634552 0.08791634 -0.010638455 0.004749558 0.061176904
0.010508487 0.03857104 -0.031765614 0.0016178505 0.019956678 -0.06828446 -0.011913525 -0.011046586
0.004057666 0.049081545 0.0006705454 -0.041783266 -0.007842025 -0.0040025203 -0.07002762 0.015548692
-0.0021579214 -0.06913334 0.027162977 0.006298697 0.036561906 -0.005390729 -0.02366629 0.060049962
-0.050238915 -0.022344958 0.042964667 -0.016550606 -0.023578241 0.088198364 -0.023485884 -0.049306042
0.012387343 0.0015597389 -0.025873065 0.061155252 0.02309018 -0.0059020077 0.015048004 0.043678217
-0.004519642 0.003997318 0.02336518 -0.021785958 0.016321046 0.048169296 0.03950052 -0.078746505
-0.0033550966 0.049048938 -0.054659598 0.042564176 0.036590658 -0.047508284 0.032269623 0.038212106
0.078349866 -0.022143418 0.0018153567 -0.016474212 -0.02857764 0.026315484 -0.05380614 0.00089746923
-0.02071739 -0.016729997 -0.020497521 -0.00014188424 0.08671068 -0.009945275 -0.00057675294 0.048912264
0.010675988 0.03230197 -0.036921 0.007930731 0.01589306 -0.07025748 0.001875054 -0.01681958
0.014970158 0.04209969 0.0036457141 -0.03759441 -0.009124555 -0.008920281 -0.072931506 0.01080868
-0.0033560086 -0.072964855 0.022277731 0.00373387 0.030174965 -0.012864241 -0.03231187 0.056148984
-0.05712062 -0.023108032 0.0451348 -0.016603805 -0.016323883 0.0952674 -0.021068998 -0.043660466
0.0037160171 -0.008522551 -0.02868216 0.06968413 0.017653637 -0.0044912435 0.018336868 0.04211639
-0.0023113522 0.0010981514 0.026662825 -0.02328006 0.020993456 0.04787638 0.032156773 -0.08164933
-0.008145096 0.041155837 -0.06555715 0.037289504 0.03667376 -0.042377394 0.031385582 0.03693161
0.08274313 -0.01787114 -0.0026274102 -0.0052213995 -0.02817301 0.021335633 -0.065910265 -0.015942264
-0.20952804 -0.19106391 -0.23421778 -0.29403567 -0.63316697 -0.100392364 -0.06838713 -0.28736487
-0.07504049 0.17427388 0.15942904 0.17958102 0.074284285 0.09205626 -0.13383918 0.023031404
-0.11463742 0.041432377 0.062241044 -0.06704196 0.12252298 -0.23400566 -0.34029484 -0.2989974
-0.12905644 -0.019728417 -0.039940443 -0.31298715 -0.29887775 -0.33093458 0.48316702 1.388779
0.51275617 0.15222614 0.1123248 0.16508953 -0.24841142 -0.34874216 -0.3442352 -0.14563611

tpcnn_ouput.bias f4 [8]
00000000: 2486 fb3c 493c 9a3c 509f 3cbc 088d 0ec0
00000010: 8e6d 31c0 78a7 32c0 b208 3ebf 42c2 b93d
0.030703612 0.018827574 -0.011512592 -2.2273579 -2.7723117 -2.7914715 -0.7423202 0.09070255
